tensorflow/alignment/m2/w1.npy (npy, 62800 bytes, 1 tensors)

array f4 [784, 20]
00000000: c073 fabc 672b 4b3e 403d 9f3d e8c8 1b3e
00000010: 7f35 173c 735e 38bd fb1a dd3c e974 b73d
00000020: b2cc f3bd 8173 443d d598 b43d 759e 3bbd
00000030: 5ae8 713d c3f6 4dbc 75ac 75bc c05d 75bb
00000040: e317 6d3d 6f35 d7bd bcf6 34bd 9cfa c6bb
00000050: 1ba2 abbd d73b ad3d 7e03 27be 05f7 c33b
00000060: 4087 3e3e 0b57 80bd b7a9 503b 57be ed3d
00000070: 7deb 3c3e 6dc1 d9bc 76e4 9c3d dc09 bcbd
00000080: 0d8b 0cbc 9a7f 52bc 132e 373d aa3d 513a
00000090: e16f af3d 1f32 423c d200 543d 532a 3e3e
000000a0: 4791 4c3d a9a4 2c3c 4d11 00be 48e9 32be
000000b0: d5eb dd3d 1b14 053e 073a 3cbd 9148 9b3d
000000c0: aeed 94bc 68d9 d33d dd43 4a3d 6b16 59bc
000000d0: bfa9 353d fe7f a7bd 88fb d13d 117b 343d
000000e0: 3110 493e 52b4 783d a50a 54bc 4fab a7bd
000000f0: 4f51 7ebd ea8a 61bd 3c7e 28be 0d38 ddbc
00000100: 22e3 bbbd 861f 083d 57cb 303e d89f e13c
00000110: c31d b43c 7c5e 0f3d cf51 4abd dfb9 cb3c
00000120: c37c 593d fb1a 443e 3347 d03d ab05 60bd
00000130: b662 86bc 6c3e b6bd 0739 853d d668 47bc
00000140: 93c9 c03d 6eba 03bd 0630 99bd e29f ff3d
00000150: d684 b7bd 32ba e73c b5f7 9a3c 7f41 9bbd
00000160: 7052 fe3d 7082 983c af85 37b9 af46 b3bd
00000170: 6b59 e43c 03d4 f4bd f688 bf3c 290e be3c
00000180: bd8d abbc bf4d adbd d372 563d c762 89bd
00000190: c7f1 cbbd 5fbd 9dbd 6ae5 d23d 7944 33be
000001a0: c733 0b3e aa75 c23d 5553 e23b 3d86 343d
000001b0: 7d2a dd3b bdf8 75bd 1d01 503d 7361 9d3d
000001c0: 69b3 a7bc 234c a0bc 7041 643d fbff 213d
000001d0: b528 b03d 0b8c 783d fbcd 7c3d d073 2b3d
000001e0: 1c0e 3a3d 3f19 0d3e 4f3d 47bc b3be 6dbc
000001f0: e70e 50bc 7baf aabc 5b3d 58bc 0349 febd
00000200: 5324 55bc 5f33 2e3d f171 86bc 43df bd3d
00000210: 3478 02be a832 c73b a4bd 023d 767e 2cbd
00000220: fb32 16be 2972 47be 61be 85bd 1ee9 463e
00000230: b0e4 153d 1225 cfbd 546c 39bc 12f7 323d
00000240: c34c d83c 9c9c 0b3e f35a d53c f4b9 813d
00000250: a743 b3bc a3d5 8f3d d86f da3d bd83 433e
00000260: dba5 f13c 0703 b73d 0b48 443c db12 7c3d
00000270: 3b71 51bd 0890 98bd 4612 bcbd 07f9 cbbb
00000280: a791 363c 5bd2 483d 2675 a1bc 8f9e b0bd
00000290: 081e 623d 574b 4d3d 9b9c 00be acd0 14bd
000002a0: 3b90 c2bd f715 813d d7f6 05bd af69 373d
000002b0: a219 993d 562d 9a3c 3faa 753c ca45 dabd
000002c0: 32c4 66bc ad53 b73d 540f 0bbe 0fa5 923c
000002d0: 9fb4 e63d 7290 b73d ff8d 8ebd 8519 e5bd
000002e0: 93cb 873d cf2d ed3d ef07 143e 00a6 e83c
000002f0: 8cb3 3cbd f6cc c0bd 9ad6 1dbb 5353 8c3c
00000300: 1fe3 8bbc 1099 a0bd 59ea 4bbe d5de 8abd
00000310: 4ac1 1f3e 8cdb 0b3d bb0c 89bb a60f 38bd
00000320: 304e e9bc 67e1 733d 6b21 133d eb15 b83c
00000330: 6789 46bd 2b0c 41bd b0a0 1ebd 7b88 5a3d
00000340: 52d3 83bd 3f6b c33c 9cd5 39be 0332 b7bc
00000350: aa22 dd3a 99b9 b0bc 1b10 303d f4ec bcbd
00000360: 44ba 42be 51ab 013d eb37 03be ec31 aa3d
00000370: 5722 213c 81c7 4cbd e947 21be ca98 45bc
00000380: 6dd3 b6bd cf3a 0fbd fd23 7dbd 474a 84bc
00000390: 9b10 e33a 47e7 9c3c 49cc 0bbd 7403 303e
000003a0: e07b 333e 4b5d 6f3d 75fc 10bd 2f4b 223d
000003b0: e58b f4bd d438 c63d 4b79 0e3e 4e06 2f3d
000003c0: 1a1e 18be eaf0 f4bd f778 023e fdc1 2a3d
000003d0: 56c9 103e 20e7 95bd 6498 c2bd b145 43be
000003e0: c5e5 fb3c ebfd 003e ab2d d63b 22b6 d8bd
000003f0: 6e9a 253d bb8a bcbc 6a76 9bbd 2e72 acbd
-0.030572772 0.19840775 0.077753544 0.15213358 0.009229063 -0.04501195 0.026990404 0.08957846
-0.11904277 0.047961716 0.08818213 -0.045805413 0.05905948 -0.01257104 -0.01499473 -0.0037439913
0.05788411 -0.105082385 -0.044180617 -0.0060723554 -0.083805285 0.08458679 -0.16309926 0.0059803748
0.18606281 -0.06266602 0.003183944 0.1160857 0.18449207 -0.02658149 0.07660763 -0.09181568
-0.008578074 -0.012847805 0.044721674 0.0007981906 0.08566261 0.01185277 0.051758595 0.18570833
0.049943235 0.010537305 -0.125066 -0.17471802 0.10835997 0.12995951 -0.045953777 0.075822
-0.01817974 0.10344201 0.049381126 -0.013249974 0.044351336 -0.081787094 0.10253054 0.044062678
0.19635083 0.06071884 -0.012941991 -0.081869714 -0.06208926 -0.05506412 -0.16454405 -0.027004266
-0.091741815 0.033233188 0.17265068 0.02754204 0.021986848 0.035002217 -0.049394425 0.024868904
0.053097498 0.19150917 0.1016983 -0.054692905 -0.01640449 -0.08898625 0.06505018 -0.012170991
0.09413447 -0.032160215 -0.07479863 0.12481667 -0.08960883 0.028287027 0.018916944 -0.07580852
0.124180675 0.018616885 -0.00017502041 -0.08753716 0.027874669 -0.119545005 0.023380738 0.023200111
-0.02094161 -0.084620945 0.0523556 -0.067082934 -0.09958225 -0.07702135 0.102976635 -0.17506589
0.1359397 0.09495099 0.0069069066 0.044073332 0.0067494498 -0.06005167 0.05078231 0.076846026
-0.020471292 -0.019567555 0.05572647 0.039550763 0.08601514 0.06068043 0.061719876 0.041858494
0.045423612 0.13779162 -0.012160613 -0.014510798 -0.0126988655 -0.020835629 -0.013198222 -0.1241627
-0.013009149 0.04252946 -0.016411753 0.092710994 -0.12741166 0.0060790367 0.031919137 -0.04211279
-0.14667885 -0.19477142 -0.065304525 0.19424865 0.036595047 -0.101144925 -0.011317331 0.043692656
0.02640379 0.1363396 0.026044345 0.06334296 -0.021882845 0.0702317 0.10665864 0.19093223
0.029498031 0.08936124 0.011980067 0.06154142 -0.051133376 -0.07449347 -0.09183173 -0.0062247547
0.011143125 0.049028736 -0.019709181 -0.08623993 0.05520442 0.050120678 -0.1255974 -0.036331818
-0.09500166 0.063030176 -0.032706108 0.044778522 0.07475592 0.018820446 0.014994203 -0.106578425
-0.014084863 0.08951507 -0.13580066 0.017900972 0.112649195 0.08963098 -0.06960677 -0.11186508
0.066306256 0.11581003 0.14456151 0.028399467 -0.046069667 -0.09414093 -0.0024084211 0.017129576
-0.017076073 -0.07841694 -0.19913615 -0.06780783 0.15601078 0.034144923 -0.004182426 -0.0449368
-0.028479666 0.059541132 0.03592054 0.022471389 -0.04847088 -0.047130745 -0.038727462 0.053352814
-0.064367905 0.02385485 -0.18147892 -0.022362715 0.0016871293 -0.021572875 0.04298411 -0.09224883
-0.19016367 0.03165752 -0.128143 0.08310303 0.009834847 -0.04999495 -0.15750088 -0.0120603535
-0.08927045 -0.034968194 -0.0618019 -0.0161487 0.0017323674 0.01915325 -0.03413037 0.17188817
0.17527723 0.05843858 -0.03539701 0.039622482 -0.11940745 0.09678808 0.13913457 0.042730622
-0.14855233 -0.11960013 0.12741457 0.041688908 0.14139304 -0.07319474 -0.095017225 -0.19069554
0.030749211 0.12596862 0.0065362058 -0.10581614 0.04043048 -0.02301537 -0.07590945 -0.084202155
