tensorflow/alignment/m2/w1.npy (npy, 62800 bytes, 1 tensors)

array f4 [784, 20]
0	0x3db9f68d	0.09080229
1	0xbd8ecd40	-0.06972742
2	0xbd81dc9f	-0.06340908
3	0xbcbd5513	-0.023111856
4	0x3cd97982	0.026547197
5	0xbddf8590	-0.10914147
6	0xbc6e28b2	-0.01453607
7	0x3c1f369b	0.009717609
8	0x3e1fcfb5	0.15606578
9	0xbc0aa6db	-0.008462633
10	0x3e0d18f7	0.13779055
11	0x3dbbdf8b	0.09173497
12	0xbde1e1e7	-0.110294156
13	0x3e00402c	0.1252448
14	0x3e1c93b7	0.15290724
15	0xbd340afa	-0.04395578
16	0xbd9dd7ed	-0.077072
17	0xbd939f2a	-0.072080925
18	0xbb95f55c	-0.0045763683
19	0xbca35229	-0.019936638
20	0x39df009d	0.0004253433
21	0x3d5f5ebb	0.0545337
22	0x3cf64670	0.030062884
23	0x3d363167	0.044480707
24	0xbc3999cf	-0.011328175
25	0x3b208d8f	0.0024498438
26	0xbe046ceb	-0.12932174
27	0x3e34b350	0.17646527
28	0xbd66b4ff	-0.056324955
29	0xbdf570e7	-0.11984425
30	0xbe330453	-0.17482118
31	0xbe453a5d	-0.19260545
32	0xbe2fe923	-0.17178778
33	0xbd411390	-0.047137797
34	0xbcee11e2	-0.029061262
35	0x3d3f74db	0.0467423
36	0x3de035ed	0.109477855
37	0x3c213973	0.009840357
38	0x3d2b4395	0.041812498
39	0x3c7af182	0.015316369
40	0x3dde5a6a	0.10857089
41	0x3b127d7a	0.0022352622
42	0xbc8d901d	-0.017280633
43	0x3e439608	0.19100201
44	0xbd05b24f	-0.03264075
45	0x3dca6c37	0.098839216
46	0x3dce38c3	0.1006942
47	0xbda021ec	-0.0781897
48	0xbcca3173	-0.024681782
49	0xbcb53101	-0.022118093
50	0xbe48a728	-0.19595015
51	0x3d8ff0cf	0.070283525
52	0x3e0ee884	0.13955885
53	0xbc8292a3	-0.015939062
54	0xbe1f1140	-0.15533924
55	0xbd808bb9	-0.0627665
56	0xbac0f635	-0.0014721813
57	0xbdf4771b	-0.1193678
58	0x3d50e3c7	0.050998475
59	0x3e00f17b	0.12592117
60	0x3df39730	0.11894071
61	0xbda38d2f	-0.07985913
62	0xbd743910	-0.05962473
63	0x3c46e2b3	0.01213901
64	0x3e0fa974	0.14029485
65	0x3da83bc7	0.082145266
66	0xbb2af08f	-0.0026083326
67	0x3d1260b9	0.035736773
68	0xbceb9138	-0.02875577
69	0x3d54a470	0.051914632
70	0xbcb7968c	-0.022410654
71	0xbd976cb4	-0.0739378
72	0xbd94ac4e	-0.07259427
73	0x3dcaa7dc	0.09895298
74	0xbd97bfdf	-0.074096434
75	0x3d2bcdc3	0.041944277
76	0xbb2444cb	-0.0025065418
77	0x3d335c3a	0.043789126
78	0xbe273577	-0.16328989
79	0xbc8d2763	-0.017230695
80	0xbe22e5e6	-0.15908012
81	0xbd78d5b5	-0.060750682
82	0x3e499ae3	0.19687991
83	0xbe2a504a	-0.1663219
84	0xbdb515e4	-0.08842066
85	0xbdb4ded7	-0.08831566
86	0x3d923e47	0.07140785
87	0x3db9a3ba	0.090644315
88	0x3c0b5234	0.0085034855
89	0xbda4d982	-0.08049299
90	0x3d01cc36	0.03168889
91	0x3cadabc8	0.021200076
92	0x3d9bfe8c	0.0761691
93	0xbd842fb6	-0.06454413
94	0x3d98f379	0.07468314
95	0x3d5bf2e2	0.053698428
96	0x3cc67542	0.024225835
97	0xbbb72afb	-0.0055898405
98	0xbd837eab	-0.064206444
99	0x3d384654	0.044988945
100	0x3c29c614	0.010362167
101	0x3da3a007	0.07989507
102	0x3d99b3da	0.07505007
103	0x3e17ee0b	0.148369
104	0xbb2312d7	-0.0024883056
105	0xbd0a2ab1	-0.03373212
106	0x3e0c8ccc	0.13725585
107	0x3d170e9d	0.03687917
108	0x3d913ae1	0.070913084
109	0xbe2ec7c2	-0.17068389
110	0xbca7790f	-0.020443467
111	0x3dd18373	0.1023015
112	0xbe4229d4	-0.18961269
113	0x3d56db6a	0.052455343
114	0xbe1807d0	-0.1484673
115	0x3c19092a	0.009340564
116	0x3b78261a	0.0037864507
117	0x3d462b03	0.048380863
118	0x3d830cde	0.063989386
119	0xbe155988	-0.14584935
120	0x3ca1b6d4	0.0197405
121	0xbbf1e6bf	-0.0073822434
122	0xbda55fd0	-0.080749154
123	0x3d2a2ff0	0.041549623
124	0x3bc49cab	0.0060001216
125	0xbd57d1eb	-0.052690428
126	0xbd0a5f0b	-0.033782046
127	0xbb8e22d2	-0.004337647
128	0xbc110d7d	-0.0088533135
129	0xbdb96cf7	-0.090539865
130	0xbd6b68fb	-0.057473164
131	0x3d37309d	0.044724096
132	0x3dcb264b	0.09919413
133	0xbdbc2a23	-0.091877244
134	0x3e1b3aa5	0.1515909
135	0x3e2b0ce5	0.16704138
136	0xbc3d6d7b	-0.011561747
137	0xbd1f9303	-0.03895856
138	0x3d35fc42	0.044430025
139	0x3d5ea265	0.05435409
140	0x3cbc83ee	0.023012128
141	0xbdb41a3b	-0.087940656
142	0xbbf1e1b7	-0.0073816436
143	0x3da7bbd4	0.08190122
144	0xbd4b1ced	-0.049588133
145	0xbdaca979	-0.08430762
146	0xbd4c7969	-0.049920473
147	0x3d954ba8	0.07289821
148	0x3dc96788	0.098342
149	0x3b395941	0.002828196
150	0x3dc51e5f	0.096249335
151	0x3cedc91a	0.029026557
152	0x3e46f74f	0.19430278
153	0x3d85a067	0.06524735
154	0xbe0c478b	-0.13699166
155	0x3c65c6af	0.014024421
156	0xbe0ac880	-0.13553047
157	0x3cd1f54b	0.02562966
158	0xbe1fd3c4	-0.15608126
159	0x3b5cc477	0.0033686438
160	0xbe14df23	-0.14538245
161	0xbd7caa60	-0.06168592
162	0x3d3809c9	0.044931207
163	0x3dc8920b	0.097934805
164	0xbd3aa710	-0.04556948
165	0xbd763685	-0.060110588
166	0xbdcfb42d	-0.10141788
167	0x3ac56b11	0.0015061816
168	0xbd406959	-0.046975467
169	0xbdf42417	-0.11920946
170	0xbd3b3c0f	-0.045711573
171	0xbdcaf143	-0.09909298
172	0xbd75686d	-0.05991404
173	0x3b6b351d	0.0035889812
174	0xbc856b5a	-0.01628654
175	0xbd8f14b8	-0.06986374
176	0x3e23c0dd	0.1599154
177	0x3d682e5b	0.056684833
178	0x3d445f23	0.047942292
179	0xbdc0646c	-0.09394154
180	0xbca519af	-0.020153848
181	0xbd2b615b	-0.041840892
182	0xbd81d942	-0.06340267
183	0x3e193863	0.14962916
184	0x3d11779e	0.035514466
185	0xbd87311b	-0.06601163
186	0xbd9afcbf	-0.07567739
187	0xbdf61167	-0.12015038
188	0xbd8075b1	-0.06272448
189	0xbcf5a4ed	-0.02998587
190	0x3c5de2b0	0.013542816
191	0x3dadfcd9	0.084954925
192	0xbdf9f578	-0.122050226
193	0xbd6a7ac5	-0.05724599
194	0xbdb1a093	-0.08673205
195	0xbe20bf9c	-0.15698093
196	0x3ce2daf2	0.027692292
197	0xbbc71187	-0.0060750875
198	0xbd1d7722	-0.038443692
199	0x3d01b3b0	0.031665504
200	0x3d16cac7	0.036814477
201	0x3e0c65bf	0.13710688
202	0xbc972472	-0.018449996
203	0x3d5b863f	0.053594824
204	0x3e12f3ae	0.14350769
205	0x3d84230f	0.064519994
206	0x3d2bbedc	0.041930065
207	0x3e2ea4a8	0.17054999
208	0xbe152f4f	-0.14568828
209	0x3d3d20f2	0.046173997
210	0x3e360cfe	0.17778394
211	0x3ddfd4c8	0.10929257
212	0x3e1c2481	0.152483
213	0xbd622e55	-0.055219967
214	0xbe290645	-0.16506298
215	0x3ab9fd53	0.0014189876
216	0xbd286872	-0.04111523
217	0xbcccb581	-0.024988892
218	0xbd592ad5	-0.053019363
219	0xbe0bd8cc	-0.1365692
220	0x3e0f1763	0.13973765
221	0x3cf5daf0	0.030011624
222	0x3e056f1b	0.13030665
223	0x3ce5cd12	0.028051887
224	0x3dc2e18a	0.095156744
225	0xbde5a872	-0.11213769
226	0x3d026a07	0.031839397
227	0x3dddf75d	0.108381964
228	0x3ba2f33b	0.004972843
229	0x3d4a3ab6	0.049372397
230	0x3e33ddc6	0.17565069
231	0xbd0df634	-0.034658626
232	0xbd3fb64b	-0.046804707
233	0xbbea43cb	-0.007149195
234	0x3b84a5dd	0.0040480928
235	0x3cfdceda	0.030982424
236	0xbdffb652	-0.12485947
237	0x3c4a1bd3	0.012335735
238	0x3cfdde55	0.030989805
239	0x3deeeaab	0.11665853
240	0x3d6589a1	0.056039456
241	0x3db5361d	0.08848212
242	0x3d2acb35	0.0416977
243	0xbdc564f3	-0.09638395
244	0xbdc71fe4	-0.097228795
245	0x3dba75ab	0.09104475
246	0xbd30d10d	-0.043168116
247	0x3dfa39f3	0.12218084
248	0xbe307228	-0.17231047
249	0x3d38a094	0.045075014
250	0x3d67d67c	0.056601033
251	0xbdc5f85b	-0.09666511
252	0x3d10fdcf	0.0353983
253	0x3d1cb7d0	0.038261235
254	0x3c0312a7	0.0080000525
255	0xbd12e1f5	-0.03586002
