tensorflow/alignment/m2/w1.npy (npy, 62800 bytes, 1 tensors)

array f4 [784, 20]
000000 e2 8b 17 bd e7 7d df bc ab db 16 be dc a7 10 bc
       -0.036998637 -0.027281715 -0.14732234 -0.008829083
000010 a1 f7 10 3e f9 97 2a 3d de 8d 04 3d 48 e3 56 3c
       0.14156963 0.04164884 0.032361858 0.0131157115
000020 f0 9c ee bd 12 9b 97 3d 33 15 89 3d d0 2f dc bd
       -0.11651027 0.07402624 0.066934966 -0.10751307
000030 23 cc 89 bc a9 0b 81 3d d7 36 2c 3d bd 42 c5 bd
       -0.016820973 0.06301052 0.042044487 -0.0963187
000040 b3 f2 9d bd b7 10 0a be cf f8 c0 bd 92 c3 1b 3d
       -0.07712307 -0.13482939 -0.094224565 0.038028307
000050 37 22 21 3e 86 a6 bc bc 62 cb 90 3d 1c 04 01 3c
       0.15735708 -0.023028623 0.07070042 0.007874515
000060 d0 ce af 3d 22 db 28 bd 8f 6f 97 bd 9e dd c6 bd
       0.08584368 -0.041224606 -0.07394325 -0.09710239
000070 95 58 e5 bc cf 4c bc bd f2 d5 b2 bd 9e 17 a5 3d
       -0.02799634 -0.091943376 -0.08732213 0.08061145
000080 32 ee 17 3e 5a b7 95 bd 37 43 15 3d c0 ca f7 bd
       0.14836958 -0.07310362 0.036441054 -0.12099218
000090 b2 bc a7 bd 1a 85 17 3e 4e c5 92 3d 06 12 8a bd
       -0.08190288 0.14796868 0.07166539 -0.06741719
0000a0 3a 5a f4 bc 2f 86 5e bd 6c 89 95 bd 8f bc 83 bc
       -0.02982818 -0.054327186 -0.07301602 -0.016081123
0000b0 61 5f 3a 3d d9 2a 38 be eb 94 17 be c0 73 07 3e
       0.045501117 -0.17985095 -0.14802901 0.13227749
0000c0 82 09 1e bb 5f a8 9c bd a3 6d c9 3d f0 18 74 39
       -0.0024114554 -0.07649302 0.09835365 0.00023278943
0000d0 6a f6 5e 39 25 12 03 be a9 81 49 bd 52 71 c2 bd
       0.00021263366 -0.1279989 -0.04919592 -0.094942704
0000e0 f8 cd 8d 3d 6d 61 f8 3c 5f 05 ad bd 19 e8 06 be
       0.06924051 0.030319894 -0.0844829 -0.13174476
0000f0 45 5f c3 bc 3e ea 10 3e 63 6d ff bd 17 04 bc 3d
       -0.023849139 0.14151856 -0.12472036 0.091804676
000100 f7 2a 71 3d a1 93 87 bc c1 00 ad bd ef f7 97 bd
       0.058878865 -0.016549887 -0.084474094 -0.074203365
000110 ea fa e5 bd 0e 8c 92 3c 5e be 44 be 8f 61 14 3d
       -0.11229499 0.017889049 -0.19213244 0.03622585
000120 20 aa 08 3e 02 f5 47 3e b3 00 63 bd 36 7e a3 bd
       0.13346148 0.19527057 -0.05542059 -0.07983057
000130 04 b6 18 3e dd 1f f3 bd 00 be e4 3d 88 86 92 3b
       0.14913183 -0.11871312 0.11169052 0.004471604
000140 14 08 2a 3b f2 59 66 3d f0 16 67 3d 8c a2 47 bd
       0.0025944756 0.056238122 0.05641836 -0.048739
000150 01 96 15 3d eb 6f 0c 3e eb 4d 38 bd fd fa 32 be
       0.036520008 0.13714568 -0.044996183 -0.17478557
000160 5d 76 87 bd 17 57 ac 3c f0 a2 ec 3d ff 79 ab 3c
       -0.06614373 0.021037621 0.11554515 0.020932196
000170 83 4b 53 3d e5 c8 79 3d a2 e7 cd bd 59 b8 18 be
       0.051585685 0.060982604 -0.10053946 -0.14914073
000180 35 cf 27 bd 5f ca 17 be 0b ec 43 bd b7 a5 eb 3c
       -0.040969092 -0.14823292 -0.04783253 0.028765542
000190 3e 97 4b bd 93 3b 4f 3d 30 47 d5 3c bf 6a 39 3e
       -0.049704783 0.050593924 0.026034921 0.18107127
0001a0 df db a9 3c c0 bd 60 3b 3d 40 cd 3d 8b 65 01 3e
       0.020734726 0.0034292787 0.10022018 0.12636392
0001b0 a7 b8 0d 3e 86 c9 8c 3d 7b 04 3e 3e d8 2e b5 bb
       0.1383997 0.06874375 0.18556397 -0.005529266
0001c0 63 61 9a 3d 1f 98 12 be 1f 54 bf 3d 4f b1 02 3e
       0.07538106 -0.14315842 0.09342217 0.1276295
0001d0 b5 64 39 bc c7 a0 ed 3d 7c ee bb bd c3 47 b1 3d
       -0.011315514 0.116029315 -0.09176347 0.086562656
0001e0 84 6e 40 3d 90 cb 0f bc 1d 20 24 3d 5e 06 4a bd
       0.046980396 -0.00877656 0.040069688 -0.04932248
0001f0 2b fb d9 3d 8b df f5 bd 0f 8f 0f bd 7f 71 00 3e
       0.106436096 -0.12005528 -0.03504854 0.12543295
000200 b6 e1 8a bd e6 89 2a be e3 5d 67 bc e0 76 08 3c
       -0.06781332 -0.16654167 -0.014121505 0.008329123
000210 78 09 d2 bc 47 36 1b 3d 19 83 ac 3c 03 1e 88 3d
       -0.02563928 0.03789356 0.021058606 0.06646349
000220 e1 ff a7 3c 06 d9 10 3c 0f da 7e 3d 37 d8 b5 3b
       0.020507755 0.008840805 0.062219676 0.0055494565
000230 7d e7 ae 3b 83 47 d5 bb b4 80 10 be b7 dd 00 3e
       0.005337654 -0.006508769 -0.14111596 0.12584578
000240 99 14 9f bd 5b 3d ed bd f7 34 5d bc 3d 78 75 bd
       -0.077676006 -0.11583968 -0.013501397 -0.05992912
000250 61 cd 24 3c fb 12 0c 3d 1c 65 cb bb 47 6e 53 bd
       0.010058732 0.03419779 -0.0062071215 -0.05161884
000260 95 40 b2 bd 0c 71 0e 3e 65 81 b1 bd 83 84 1f 3d
       -0.08703724 0.13910311 -0.08667258 0.038944732
000270 f0 7a 61 bd 1a 45 6f bd 84 2d 12 be d4 f8 29 3e
       -0.055048883 -0.05841551 -0.14275175 0.16598827
000280 1b 56 98 3d 4b 99 55 bd c2 dd 93 3c 85 ac 03 bd
       0.07438298 -0.052148145 0.018050078 -0.03214695
000290 6c ab 91 3d d8 b1 a8 bd 9a 50 26 3d bb 6d f0 3d
       0.07112774 -0.08237046 0.04060421 0.117396794
0002a0 b0 a7 03 3d 9a 31 21 be 05 1d d6 bd 90 b6 be 3c
       0.03214234 -0.15741578 -0.10454754 0.023280412
0002b0 7c 20 1d 3c 08 86 04 bd e5 81 b3 3c 33 9b 8e bd
       0.009590264 -0.032354385 0.021912524 -0.06963196
0002c0 6b 20 20 3e 40 ae a4 3d 29 1e 1f be 9e 84 21 be
       0.15637366 0.08041048 -0.15538849 -0.15773246
0002d0 47 41 46 3e 17 0a 68 bd 97 4f 8d 3a 0d 88 7f bd
       0.19360839 -0.056650247 0.0010781166 -0.062385608
0002e0 6b 24 0e 3e 13 75 e2 bc 05 de fc bb 2f 10 17 3a
       0.1388108 -0.027643716 -0.0077168965 0.00057626044
0002f0 e3 7e 51 3d 69 a2 b5 ba cc 3a 32 bd 1d 78 1a 3d
       0.0511464 -0.0013857606 -0.043513104 0.037712205
000300 7b 29 38 3e eb c2 9c 3b 85 a4 e4 bd c7 8e d6 bc
       0.17984574 0.004783978 -0.11164192 -0.026191128
000310 cd a8 fd bc 81 0c 2f 3d 93 c5 f5 3c ca 8a 37 ba
       -0.03096428 0.042736534 0.030001437 -0.0007001577
000320 b0 0c 45 3e e2 4c 67 bd 3b 00 3e bd 46 a6 0d bd
       0.19243121 -0.056469806 -0.04638694 -0.0345824
000330 37 fc 58 3c 27 cf 20 3d cf 81 70 bd 6d bb ef 3c
       0.013243726 0.039260056 -0.058717545 0.029264176
000340 15 3f 30 bd 3b 00 15 bd 9d 34 d5 3c 0d d0 f3 bd
       -0.04302891 -0.036377173 0.026026065 -0.11904917
000350 5e b2 98 bd 50 a0 7f bc b5 d0 de 3d 4d c2 d5 3d
       -0.07455896 -0.015602186 0.108796515 0.104374506
000360 b1 72 cb 3d 7a eb 0a be a5 a5 73 3d 60 7e 75 bd
       0.09933985 -0.1356639 0.059484143 -0.059934974
000370 f7 9f 29 bb e7 0a a1 3d 3c 47 0b 3e 0a bb 2c bd
       -0.00258827 0.078634076 0.13601393 -0.04217056
000380 09 cb 1f be bf 7b c1 bd 5b b4 b8 3d 93 d9 d8 bb
       -0.15604796 -0.09447431 0.09018775 -0.0066177337
000390 9f 3b eb bd 8c a1 b1 3d 88 66 f4 bd ef cc 87 bd
       -0.11485981 0.08673391 -0.11933619 -0.06630885
0003a0 77 4d b9 bb 2f 32 9b bd 8f 1a 49 3d fd 30 91 bd
       -0.0056549865 -0.07577931 0.049097594 -0.07089422
0003b0 d1 af 0f be 03 90 c4 bc b0 36 b0 bb 6b 0e 81 bc
       -0.14031912 -0.023994451 -0.005377613 -0.015753945
0003c0 15 a3 b8 bc 2c 1b 2a 3e 49 65 03 3e 29 49 ad bd
       -0.022538701 0.16611928 0.12831606 -0.0846122
0003d0 7a 49 c4 3d 1a f4 99 bd a5 09 ea 3d 5b 45 b7 3c
       0.09584327 -0.07517262 0.11427621 0.022371938
0003e0 2b b4 0b 3d e6 c5 37 be a5 d1 50 3b ee 54 98 3d
       0.03410737 -0.17946586 0.003186324 0.07438074
0003f0 3e 02 d4 bd f8 aa c0 3c 7b 79 d8 3d c8 6c fc 3b
       -0.1035199 0.023519024 0.105700456 0.0077033974
