tensorflow/alignment/m2/w1.npy (npy, 62800 bytes, 1 tensors)

array f4 [784, 20]
000000 06 c2 3c 3d d0 43 a9 3c ad 35 2d 3d 1d c9 eb 3d
       0.046083473 0.020662218 0.042287517 0.11512969
000010 6b 88 b0 3a 03 0a 9d bd a7 68 8e 3d fa ca 65 3d
       0.001346839 -0.07667925 0.069535546 0.056101777
000020 aa 33 27 be 9f eb 3b 3c cb 7d c7 3d b7 0f be bc
       -0.16328302 0.011469751 0.0974079 -0.023200853
000030 3d a8 eb 3c 62 b1 89 3d ab 6d 8d 3d 87 c8 ae 3c
       0.028766746 0.06723286 0.06905683 0.021335853
000040 d3 61 77 bd 0b 04 e8 3d e6 9b 08 be d4 68 11 3e
       -0.060396027 0.11328896 -0.1334072 0.14200145
000050 83 0c c3 bd 82 44 57 3c 7f 45 ce 3d 50 e2 a5 3d
       -0.09523871 0.013138892 0.10071849 0.08099806
000060 ea b7 3a 3d 4b 22 a3 3b 58 42 dd 3d 5b d0 d7 bc
       0.04558555 0.0049784533 0.1080367 -0.026344469
000070 42 eb e6 bd 0c 55 08 be 99 fc 07 3e 2d 26 b9 3d
       -0.112753406 -0.13313693 0.13279952 0.090404846
000080 a9 8c a0 bd d0 b4 9c 3c 1f 10 f3 bd bb 6c 69 bd
       -0.07839329 0.019129187 -0.11868309 -0.05698846
000090 26 33 b3 bc 0b b7 fb bc 37 e4 0d bb df 23 25 be
       -0.021874975 -0.03072693 -0.002165092 -0.16126965
0000a0 db 67 ca 3d 42 bf ea 3c 27 9f f6 b8 4b 2a 11 bd
       0.0988309 0.028655652 -0.000117598385 -0.035440724
0000b0 66 3f 17 3b 50 33 e0 bc fa fd da 3c e2 df c5 bc
       0.002307856 -0.027368218 0.026732434 -0.024154607
0000c0 f6 1a 39 3e 9f 88 e4 bb a8 7f 07 3e e6 08 0b 3d
       0.18076691 -0.0069742943 0.1323229 0.033944033
0000d0 84 23 93 3d 6b 0c b8 3d 1f cc 2f 3e d5 82 0c bd
       0.071845084 0.089867435 0.1716771 -0.03430446
0000e0 4b 0b 24 bd 13 8c 0a 3e 50 07 23 3e 16 31 30 be
       -0.040049832 0.13529997 0.15920758 -0.17206225
0000f0 cc 0c c0 3d 63 d0 52 bd 6f 05 b5 3d 55 4a de 3d
       0.09377441 -0.051468264 0.08838927 0.108540215
000100 23 cf 8b 3a 92 79 2a 3e 0a aa 24 3e 8b b2 47 3d
       0.001066659 0.16647938 0.1608049 0.048754256
000110 54 c1 af 3d 67 5c f7 3d cb 43 06 bd 1a b0 eb 3c
       0.08581796 0.12078171 -0.032779496 0.028770495
000120 97 e2 8a bd c9 1f 85 bd 30 0a 36 bb fd c1 d7 3b
       -0.067815 -0.06500203 -0.0027777068 0.0065844045
000130 1b f2 b6 3c 01 7b 24 3e 35 f3 c9 3d c5 7e c8 bd
       0.022332242 0.16062547 0.09860841 -0.09789804
000140 db f4 05 3e 01 03 92 3d 1d cd 0a bd 6a 92 27 bd
       0.13081686 0.07129479 -0.033887018 -0.040911116
000150 f0 8b 1a be 87 76 c9 bd c4 68 c6 bd 61 23 35 3d
       -0.15092444 -0.098370604 -0.09687951 0.044223193
000160 ab 7d a7 bd 9d 80 3a 3d e2 31 79 bd f8 7a df bd
       -0.08178266 0.04553281 -0.060838588 -0.10912126
000170 36 27 1c be 8f b8 34 bc 03 25 89 bd 2f 84 dc bb
       -0.15249333 -0.01103033 -0.066965126 -0.0067296247
000180 9b 2f fe bb 7e 62 06 3d 43 cb 29 3d 71 0d c4 bc
       -0.00775714 0.032808773 0.04145361 -0.02393219
000190 54 1d 1d 3d 03 d8 f5 3b ac 5d 41 3e c6 52 0b 3e
       0.038358048 0.0075025572 0.18883389 0.13605794
0001a0 7f 47 24 be 47 88 09 3e c5 8c e4 bd fb ca 55 bd
       -0.16042899 0.13430892 -0.11159662 -0.05219553
0001b0 9c c7 19 3c 20 cf 76 3d 29 e3 ac bd cb 6e 1d 3e
       0.0093859695 0.060256124 -0.08441765 0.15374295
0001c0 45 a8 00 3d d7 ea 40 be d0 f9 77 bd aa 78 6b 3d
       0.031410474 -0.18839584 -0.060540974 0.05748812
0001d0 2b e8 0e be 6e b8 9f 3c aa e9 d5 bc f5 32 9a bc
       -0.13955753 0.019497123 -0.026112396 -0.018823126
0001e0 e8 60 67 3d 3e 33 b5 3d d9 8f a6 bd 87 2e 12 3e
       0.0564889 0.08847664 -0.081329055 0.14275561
0001f0 94 9f bc 3d 2d 64 f5 3c 03 ac 06 be 8f c7 4f 3c
       0.092101246 0.029954994 -0.13151555 0.012681856
000200 9d 5b a0 bd 99 ca 25 bd 77 5b 44 bd b0 db 96 3d
       -0.07829974 -0.040476415 -0.04793879 0.07366121
000210 df 92 f6 3c e5 a4 54 bc 07 61 40 3c 2e 5b c4 3c
       0.03009933 -0.012978767 0.011741883 0.02396926
000220 95 fa c3 bd 40 8a 58 3c 74 7e 19 bd a7 cc 40 3e
       -0.09569279 0.013216555 -0.03747411 0.18828069
000230 00 a0 bd 3d be d4 a9 bc 4a 03 c8 bd 22 4b 89 bc
       0.09259033 -0.020731326 -0.09766252 -0.016759459
000240 ca 42 e5 bd 2a 74 2f bd f8 fe c1 3d 1d 34 1d 3e
       -0.1119438 -0.042835392 0.094724596 0.15351911
000250 58 77 20 be c3 47 bf bd ba fe fe 3b 2d b3 e4 bd
       -0.15670526 -0.09339859 0.0077818306 -0.111669876
000260 6b 13 9d bd f7 ef 90 3d 42 72 bd bd 59 a9 c2 bd
       -0.07669719 0.0707702 -0.092503086 -0.09504957
000270 c7 8b ec bb 01 df b1 3c 60 bb 18 be a8 df 0d be
       -0.007218811 0.021712782 -0.14915228 -0.1385485
000280 4f c8 2e be 7f 42 61 bd 0c 60 34 3d 97 3f a1 3d
       -0.17068599 -0.054995056 0.04403691 0.07873457
000290 f5 ab 21 3d 40 a9 a7 3c 9f 81 0b 3d 19 80 8d 3a
       0.03947063 0.020466447 0.034059163 0.0010795622
0002a0 d6 96 04 be 90 5b 65 bd 30 c5 3b be a2 f5 c7 3d
       -0.12948164 -0.055995524 -0.1833694 0.097636476
0002b0 96 ff ca bd f9 c5 c1 3c 48 7e a1 3d ac 82 c7 3c
       -0.099120304 0.023653971 0.07885414 0.024354301
0002c0 79 84 23 bd 31 9a c4 bc 53 d2 df 3d 67 b9 fa 3d
       -0.039921258 -0.023999305 0.10928788 0.12242394
0002d0 bd d4 09 3e b8 49 ef 3d 93 ed e2 3c 75 53 6f 3d
       0.1346006 0.116839826 0.027701175 0.0584292
0002e0 42 d6 a0 bc 8b 3e 8e 3d 77 26 a1 bd 4e da be 3b
       -0.019633416 0.06945523 -0.07868665 0.005824364
0002f0 d2 62 e4 ba 63 c0 31 3c 39 43 84 3c a3 54 98 bd
       -0.001742447 0.010849091 0.016145336 -0.07438018
000300 9d ce df 3d cf 35 89 bd 4f 5d 36 be db f6 1e 3e
       0.1092808 -0.06699716 -0.17809032 0.15523855
000310 07 fc 95 bc 71 e2 33 3e d9 ce 87 3d 86 56 81 3d
       -0.018308653 0.1756685 0.0663125 0.06315331
000320 38 2c b7 bc eb 0b c5 bd 3b 18 d0 bd bf 7b 26 3d
       -0.022359952 -0.09621414 -0.101608716 0.040645357
000330 57 ca 2a be 33 10 d4 bd f8 9e d2 3c d3 ed ac 3d
       -0.16678749 -0.10354652 0.025710568 0.08443799
000340 e7 52 85 3d a5 c5 03 bc 12 a4 44 3c 3f c5 16 3d
       0.06509953 -0.008042728 0.012002008 0.036809202
000350 fb 35 7a bc 52 3e e8 3d ef e1 c8 bd b1 c3 b8 bc
       -0.015271659 0.11340012 -0.098087184 -0.02255425
000360 18 10 98 bd c8 ec 63 bd 7a d6 00 3e b7 d9 16 3e
       -0.07424945 -0.055645734 0.12581816 0.14731489
000370 b3 2c 3f 3d 97 3b af 3d 33 2a aa 3d 49 a8 3b 3d
       0.046673488 0.08556288 0.0830883 0.045814786
000380 f7 de 42 3d 73 d3 38 3d a8 e1 36 bc ef c9 04 be
       0.047575917 0.04512353 -0.011162199 -0.12967657
000390 52 e6 3c be bd 51 a1 bd ff 11 39 3d 81 c2 b0 bd
       -0.18447235 -0.078769185 0.045183178 -0.08630849
0003a0 9f db 54 bd a5 19 93 3d ac 69 31 bd 63 d7 e4 3c
       -0.05196726 0.07182626 -0.043313667 0.027934736
0003b0 3b a0 0b be 52 7c 1a 3e 5a b5 cf 3d eb e3 55 3d
       -0.13635342 0.15086487 0.10142012 0.052219313
0003c0 2d 72 fe 3c ab 7a 82 3d c9 5b bf bd 50 94 84 bd
       0.031060303 0.06371053 -0.093436785 -0.06473601
0003d0 ac f4 3d bc 21 a2 b0 bd 8a 8d 0a be 28 85 87 3d
       -0.011593979 -0.08624674 -0.13530555 0.066171944
0003e0 b2 4f 13 3e e9 c4 fb 3c 06 08 ac bd bb 91 f5 3d
       0.1438587 0.030733543 -0.08399968 0.119906865
0003f0 5c 94 9e bd 51 9c 30 be 8d 33 2f be 5b cc 19 3e
       -0.07743141 -0.1724713 -0.17109509 0.15019362
