tensorflow/alignment/m2/w2.npy (npy, 880 bytes, 1 tensors)

array f4 [20, 10]
00000000: 3908 83be 8e42 403f 0c6e 863e 99b8 08bf
00000010: 3682 d5bd a9bd 95bc d492 603f cf2c 93be
00000020: 34de eabd 7c7b fdbe 14d8 073f cb95 b7be
00000030: 7ef4 bb3e a042 b53e 5705 21bf 9028 eb3e
00000040: 7e9f ed3e cee4 28bf 4509 a43e 7934 ddbe
00000050: 962c 523f 5924 c5be 62f3 73bd e6f2 cebb
00000060: 124d 15bf f9e3 2b3f 4484 803e f4e6 2a3f
00000070: 6ea1 06bf 814a 9ebe 26c1 56bf 9016 f03e
00000080: 844c 10be 6587 0a3f 0cf2 adbe 97f6 fe3e
00000090: 2531 f3be 5d28 22bf a110 ed3e eee7 353d
000000a0: b24d f7bd 32b2 bdbe 75cc f03e 54eb ea3e
000000b0: c7a4 09bf 3dd8 87be 82a4 1ebf 90a2 4e3f
000000c0: 622c 9cbe f4ce 353f 4c1e 38bf f883 0cbf
000000d0: d31e 40be 9a7e ddbe 68b5 143f 68a8 f33e
000000e0: c764 e83e a9fe fabe 3e66 063f 61b0 ed3e
000000f0: 8522 f93e a528 68bf 878d 903d b74d 20bf
00000100: ff93 b73e 47dd ca3e 3761 fd3e 4096 0ebf
00000110: d60d ca3e 690a fd3d c828 13bf 6106 113f
00000120: 2877 143f e033 083c c2f8 f5be 42d9 2e3e
00000130: c5f7 9d3e 531b 90bd f0af 103f 540a 2bbf
00000140: 53fd 58bf f5bd 0b3f d47b a33d 7432 163e
00000150: d036 aabd b701 e6be 7f7d 51bf ef14 033f
00000160: f3f6 f53e 89d2 073f 3ba4 11bf 2643 2b3f
00000170: c34b 373f 1b0b 3cbe 5614 9bbe 7f9d 10be
00000180: b151 3b3f ac14 9fbd ae33 c3bd b00b 2cbf
00000190: b8c2 43bf 0ac8 d5be 3260 403f 3604 953e
000001a0: 4dc0 ab3e cefc e6be 7b99 93be d0c8 363f
000001b0: 4fff d1be c69d 92be 0bbb 77bf 9efe 1fbf
000001c0: 7fae 5cbe 6a38 2c3f e80c 283f 787f 0b3f
000001d0: 10b2 22bf dbcf 963d 936b 44bb 4902 293f
000001e0: 81c9 093f a8cc 1fbf 540c 463e b5e4 e13e
000001f0: 039b 69bf 0d90 d53e 6484 04bf fc31 ed3e
00000200: d564 443e 062a b93e 8dce 2ebf 2208 3c3f
00000210: 81ab 0d3f f61e 633f da7f 1dbf 39e7 493f
00000220: d74c 22bf 6fd4 e5be aed2 3abe cc47 94be
00000230: c76f b33e 0580 813e c13b ee3e 04d2 e63e
00000240: 2636 5ebf 1273 a53e 7f71 f2be f4e3 f0be
00000250: 89e7 ea3e e316 bfbe 6001 df3e 1925 09bd
00000260: 5430 f23e 9de6 d13e b9f1 47bf b0ca bfbe
00000270: 376c 56bf 4292 e43e 7544 913e 803d c13e
00000280: 8988 2ebf 8e34 0d3f 58d8 393f 57d2 2b3f
00000290: 95f9 11bf 7e01 89bd 9eb5 023f 75fb a13e
000002a0: a998 93be 8f54 5abf ebde c3be 29d5 29bf
000002b0: 4b11 0e3f d72d cbbe 4ec9 223f d543 8abd
000002c0: fba2 173f eb39 c4be e159 a4be c1be fb3e
000002d0: d94c 17bf aeae 113f 9294 f5be 0938 1dbf
000002e0: 8585 1f3f 58b6 863e 6814 1cbf 8084 363f
000002f0: 221f debe 38f3 aa3e 7f29 313f 0b57 2fbf
00000300: c64e 1a3f 3615 f63d 73f2 39be 7a00 923d
00000310: 6bb1 1a3f 1424 15bf f463 27be 9cf1 e7be
-0.2559221 0.75101554 0.26255834 -0.53406674 -0.104252264 -0.018278914 0.8772404 -0.28745124
-0.11468163 -0.49508274 0.53064084 -0.3585647 0.3670997 0.35402393 -0.6289877 0.45929384
0.46410745 -0.6597413 0.32038322 -0.43204096 0.8209928 -0.38504294 -0.05955828 -0.006315577
-0.58320725 0.67144734 0.2510091 0.66758657 -0.5259007 -0.30916217 -0.8388847 0.46892214
-0.14091688 0.54112846 -0.3397373 0.49797508 -0.47498432 -0.6334284 0.4630175 0.04441064
-0.12075366 -0.37050015 0.47030988 0.45882666 -0.53767055 -0.26532164 -0.6196977 0.807168
-0.3050261 0.7101891 -0.7192123 -0.5488887 -0.18761759 -0.43260652 0.58089304 0.4758942
0.45389387 -0.49022415 0.5249976 0.4642363 0.4865915 -0.9068702 0.07058244 -0.62618583
0.358551 0.39621946 0.49488232 -0.55698013 0.3946368 0.12355501 -0.574841 0.5665036
0.5799432 0.008313149 -0.4804135 0.17075065 0.30853096 -0.07036462 0.5651846 -0.66812634
-0.8476154 0.54586726 0.07982603 0.14667684 -0.08311236 -0.44923183 -0.81832117 0.5120382
0.4803997 0.53055626 -0.5689122 0.66899335 0.7159998 -0.18363611 -0.30288953 -0.1412258
0.73171526 -0.07767615 -0.095313415 -0.67205334 -0.7646899 -0.4175418 0.7514678 0.29104775
0.3354515 -0.4511475 -0.28828034 0.71400166 -0.41015097 -0.28635997 -0.9676978 -0.6249789
-0.2155094 0.6727358 0.65644693 0.54491377 -0.6355295 0.07363864 -0.0029971346 0.6601911
0.53823096 -0.62421656 0.1934064 0.44119802 -0.91252154 0.41711465 -0.5176451 0.46327198
0.1917909 0.36164874 -0.6828392 0.7344991 0.5533982 0.8871912 -0.6152321 0.7886844
-0.633985 -0.44888636 -0.1824443 -0.28961027 0.35046217 0.25292984 0.46529964 0.45082104
-0.86801374 0.32314354 -0.47352216 -0.47048914 0.45879772 -0.3732215 0.43555737 -0.033482645
0.47302496 0.40996256 -0.78103215 -0.37459326 -0.8375887 0.44642836 0.2837254 0.37742233
-0.68177086 0.5515832 0.7259574 0.6711783 -0.57021457 -0.06689738 0.51058376 0.3163716
-0.28827408 -0.85285276 -0.3825601 -0.6634088 0.55495137 -0.3968341 0.63588417 -0.06751219
0.59233063 -0.38325438 -0.32099822 0.4916897 -0.59101635 0.56907165 -0.47964913 -0.6141363
0.6231311 0.26310992 -0.6096864 0.7129593 -0.43383127 0.33388686 0.69203943 -0.6849219
0.6027645 0.120157644 -0.18158893 0.07128997 0.6042697 -0.58258176 -0.16346723 -0.4530152
