tensorflow/alignment/m2/w2.npy (npy, 880 bytes, 1 tensors)

array f4 [20, 10]
000000 55 b3 b4 bd 3f ee 9d bd 32 91 3d be 3d c5 02 bd
       -0.08823267 -0.077114575 -0.18512419 -0.031926382
000010 8e 96 31 be b3 fb 31 3f 2e 9c e5 be d0 86 62 3f
       -0.17342588 0.6952469 -0.44845718 0.8848696
000020 38 60 0a bf 0b 53 2f be a3 e5 ad bd 34 82 f5 3d
       -0.5405307 -0.17121522 -0.08491065 0.11987725
000030 04 08 9e bd cb 66 bf 3d d0 b6 ab 3b 4c a5 be 3c
       -0.077163726 0.09345778 0.005240299 0.023272179
000040 09 5b 18 3e 24 f7 96 bd da fb 30 be 04 c6 36 3d
       0.14878477 -0.07371357 -0.17283574 0.044622436
000050 3c 15 de bd f6 07 5f be 19 81 52 be c5 55 41 be
       -0.10843894 -0.2178038 -0.2055706 -0.18880375
000060 6b ee f9 bd 8d cb 21 3f ff a3 33 3f 56 f1 2e bf
       -0.12203678 0.6320122 0.70172113 -0.68337
000070 8d b5 1b 3f 53 19 c1 be ea 42 8c be 2a 13 28 be
       0.608239 -0.37714633 -0.273948 -0.1641356
000080 60 45 0b be 76 9a 3a be 2d e2 4e be 65 e3 5c be
       -0.13600683 -0.18222985 -0.20203467 -0.21571119
000090 3d 4b d6 be 11 21 75 3f 85 40 eb be 1b 3f 6d 3f
       -0.41854277 0.9575358 -0.45947662 0.92674416
0000a0 e1 d5 9b bd cd a3 e5 bd f5 b3 3a be a1 66 af bd
       -0.076091535 -0.11212883 -0.1823271 -0.08564497
0000b0 41 b1 e6 bd 98 12 f9 be 08 2f 90 3e a9 93 43 be
       -0.11264277 -0.48646998 0.28160882 -0.19099297
0000c0 6f a3 48 3f 96 4b 26 3f 20 49 c0 bc de 84 ef bd
       0.7837438 0.64959085 -0.023472369 -0.11695264
0000d0 04 bd d5 bc 71 ba 5d bd cc 54 01 be 44 79 0c 3f
       -0.026091106 -0.054132883 -0.12630004 0.54872537
0000e0 e0 e4 75 3f ec ff 8c be 38 12 06 be 45 d7 d3 be
       0.9605236 -0.27539003 -0.13092887 -0.41375175
0000f0 54 84 45 be 97 51 18 be e1 20 4b be f7 2c 90 bd
       -0.1928876 -0.14874874 -0.19836761 -0.07039826
000100 fc dd 40 be 3d 66 fa bd f1 68 52 3f 54 76 7c 3e
       -0.1883468 -0.12226532 0.8219138 0.24654514
000110 8f f3 19 bf 7c 83 3a 3f de b8 a9 bd 24 5d fb bd
       -0.60137266 0.7285688 -0.08287214 -0.122736245
000120 55 28 73 be c0 b1 07 bd fa b5 52 bd 26 24 5f 3c
       -0.23745854 -0.0331285 -0.051443078 0.013619458
000130 1d 93 82 3f c6 0f c2 be 61 4f 42 be ac 1f 01 bf
       1.0201145 -0.3790266 -0.18975593 -0.5043895
000140 4f e7 25 bb eb 8d 5f bb dd 32 0f be ff fc ce bd
       -0.0025314873 -0.003411169 -0.13984247 -0.10106849
000150 a5 c2 23 bd 61 c8 3a 3e 9e e3 68 3f 94 9e ca be
       -0.03998055 0.18240501 0.90972316 -0.3957411
000160 2e 6f 01 bf 27 c2 45 3f 3e c7 9a be b1 98 6b be
       -0.5056027 0.7724938 -0.30230135 -0.23007466
000170 a3 14 a3 be 25 e4 a6 be 28 15 79 be 59 4f 27 3f
       -0.31851682 -0.32595935 -0.24324477 0.6535545
000180 9a 69 52 3e a3 97 55 bf 0c 51 32 3f 70 51 ed 3e
       0.20548096 -0.83434504 0.6965492 0.46351194
000190 ce 8f da be 8b 3a d0 be 39 34 cf be be 7e e4 be
       -0.4268784 -0.40669665 -0.4046953 -0.44627947
0001a0 47 7c d6 be 6c 04 b3 bd 5b ef 09 3f ce 54 12 be
       -0.4189169 -0.08741078 0.5388085 -0.14290163
0001b0 10 4b 0a 3f 5e 70 d2 3e f8 f0 33 be 31 8e 81 be
       0.54020786 0.41101354 -0.17572391 -0.25303796
0001c0 36 50 21 be 7a 86 98 be 00 27 84 be 70 fa 1f 3f
       -0.15753254 -0.29790097 -0.25811005 0.6249151
0001d0 e7 d8 01 be 13 ce 16 3f ba 45 48 3f 99 8c 01 bf
       -0.12680398 0.58908194 0.78231394 -0.5060516
0001e0 cc 36 83 be d9 17 80 be 07 92 82 be cb 2d 4c be
       -0.25627744 -0.25018194 -0.25502035 -0.19939344
0001f0 92 59 1f be 99 e1 26 bf f9 2e f4 be c7 7c 35 3f
       -0.15561512 -0.65187985 -0.47692087 0.7089352
000200 30 2f 17 3f 84 bc 30 3f 4d 1e a4 be 18 25 86 be
       0.5905638 0.6903765 -0.32054368 -0.26200175
000210 9f 4c 84 be f3 77 53 be 50 b8 a9 be e9 cd 22 3f
       -0.25839707 -0.20651226 -0.33148432 0.63595444
000220 e1 46 2c 3f 3b e2 47 bf a7 0b 26 3f 95 bf b1 3e
       0.6729565 -0.78079575 0.6486153 0.34716478
000230 b6 40 13 be 80 a7 89 be cc 24 82 bd df bf 41 be
       -0.14380154 -0.26885605 -0.06354675 -0.1892085
000240 a7 9b 71 bd ef 54 49 3f 3a c0 74 3f 6c ba a7 be
       -0.058986332 0.78645223 0.95605814 -0.32759416
000250 8f 5c ac be 09 1f f2 be ba 90 12 be ae 6d a9 bd
       -0.33664367 -0.47289303 -0.14313021 -0.08272873
000260 ec ed f1 bc 8f 6f 31 3b 59 57 6e bd 79 94 e9 be
       -0.029532395 0.002707455 -0.05818877 -0.45621088
000270 2d c6 07 3f 29 32 82 3f 60 7d b5 be 4c ec d5 be
       0.5303677 1.0171558 -0.35447216 -0.41781843
000280 90 e7 1d be 27 90 07 be 05 bf 6d be 80 98 58 be
       -0.15420365 -0.13238584 -0.232174 -0.21151924
000290 47 c9 03 be b6 1b 90 3f c7 72 32 bf 9b f8 19 bf
       -0.1286975 1.1258457 -0.69706386 -0.60144967
0002a0 9f 6a 0e 3e 33 da 7e 3f 87 c8 f9 bd 2b 4f 43 be
       0.1390786 0.99551696 -0.12196451 -0.19073169
0002b0 51 c8 5d be 1b 64 96 be c8 b9 3d be a4 5a e6 be
       -0.21658446 -0.2937325 -0.18527901 -0.44991028
0002c0 8d a7 f3 be dd f0 3c 3f 30 11 26 3f 01 8d 2b 3f
       -0.4758877 0.7380503 0.64869976 0.6701203
0002d0 2c b4 fa bc b4 09 50 bb 4e 7a 65 3d d4 24 d2 3b
       -0.03060349 -0.0031744065 0.056024842 0.0064130817
0002e0 70 18 98 3d 9c 66 8e 3f 4b e0 9c bd c0 d2 4d be
       0.07426536 1.1125064 -0.07659968 -0.20099926
0002f0 0d be ea be 64 15 0c be a9 15 4f be 42 27 4f be
       -0.45848122 -0.13680035 -0.20223106 -0.2022982
000300 45 0a 05 be 88 52 a7 bd 87 b6 3e be 2c 59 06 3f
       -0.12992199 -0.081700385 -0.18624316 0.52479815
000310 8a 96 38 bf 43 89 4c 3f fe a5 e0 be a4 9f 33 3f
       -0.72104704 0.79896945 -0.43876642 0.7016547
