tensorflow/alignment/m1/w1.npy (npy, 62800 bytes, 1 tensors)

array f4 [784, 20]
000000 8d a3 d1 3d 47 d6 96 3d 73 2a c3 3d 2f 27 37 3e
       0.10236273 0.07365089 0.09529581 0.17886041
000010 b9 0b 0f 3e 6c 61 22 be 84 93 8a 3d 88 20 19 3c
       0.13969316 -0.15857476 0.067664176 0.009346135
000020 a5 3c 63 3d 9b 31 8a bd 7b ee 37 bd aa 34 8a 3d
       0.055477757 -0.06747743 -0.044905167 0.06748326
000030 67 b7 10 be e7 e9 23 3c 0e 40 3f 3d ba ba b2 bd
       -0.14132462 0.010004497 0.046691947 -0.087270215
000040 33 9d 1c 3d 97 fa 9d 3d 32 5d d9 bd 11 5b 97 bb
       0.038235854 0.07713812 -0.10613479 -0.0046190103
000050 39 93 46 3d e7 12 98 bc 4d ba 31 bd 8c fe 92 3c
       0.048480246 -0.0185637 -0.04339056 0.017943643
000060 78 58 cf 3d 37 72 8d 3d 3b 19 a2 3d 95 15 ef 38
       0.10124296 0.069065504 0.079149686 0.00011400428
000070 cd df c2 3d 2b f0 1e bd d5 06 3a be e3 0a b2 bd
       0.09515343 -0.03880326 -0.18166669 -0.08693483
000080 c2 be 61 bd 98 83 07 3d 4b 4a 0a bd b2 52 ca 3d
       -0.05511356 0.033084482 -0.033762258 0.09879054
000090 4b 5c 6a bc e6 c9 01 3e e0 1c ae 3d d1 39 34 bc
       -0.014304231 0.12674674 0.08501601 -0.011000113
0000a0 18 2c 62 3d 25 d3 54 bc d0 29 17 be 32 7a 8c 3b
       0.055217832 -0.012989794 -0.14762044 0.0042870278
0000b0 df 60 81 3c 42 87 cc bc 37 e4 91 3d 28 fa a2 3d
       0.015793262 -0.02496684 0.07123607 0.0795787
0000c0 2f a8 13 bd f5 62 70 3d 6c 00 13 bb 5c 78 8e 39
       -0.036049064 0.058688123 -0.0022430671 0.00027174025
0000d0 1d 51 53 3c 95 eb 18 3d 96 1c 22 3d 6d e0 3c 3c
       0.012897757 0.037334044 0.039578043 0.011528117
0000e0 93 93 fc bd fa 71 1b bd ee 31 20 be c3 76 41 3d
       -0.12332835 -0.037950493 -0.15644047 0.0472324
0000f0 3d 4d 8b 3c 4a 49 f9 bc 7b 9c 4f 3d f2 f6 2d be
       0.017004604 -0.030430455 0.05068634 -0.16988733
000100 73 16 ad bc ff 1a 01 be 20 24 dc bb ad 68 90 3d
       -0.021128869 -0.12607954 -0.0067181736 0.07051215
000110 07 eb 48 be 1f fe 77 bd 2a 08 9b bd 52 55 bb bd
       -0.19620906 -0.060545083 -0.075699165 -0.09147133
000120 9d ad 4f bd 5a 50 87 3d c3 44 c7 bd 04 e0 b1 3d
       -0.05070268 0.06607123 -0.09729912 0.08685306
000130 fc fb bb bd 8d 7c 51 3c 90 c7 d6 3b 7f 83 50 bb
       -0.091789216 0.012786043 0.0065545514 -0.003181666
000140 3b 61 47 3e 0e 62 41 3d 1d 40 e4 bd 37 16 cc bd
       0.19470684 0.047212653 -0.11145041 -0.09965175
000150 a6 dc bb bd be 83 99 bd 64 cd 29 bd b8 bd 36 bc
       -0.09172945 -0.07495831 -0.04145564 -0.011153631
000160 34 3f 0d 3e c4 ec 22 bd 9a d4 14 bb 2d 2f e3 bc
       0.13793641 -0.03977658 -0.0022709728 -0.027732456
000170 22 3e ef bc d8 43 9d 3d 27 95 3a bd 4f 51 aa 3d
       -0.029204432 0.07678956 -0.0455524 0.0831629
000180 4b a3 96 bd 8f 1a fc bd ab b1 d2 bd 23 a8 29 bc
       -0.073553644 -0.12309753 -0.10287794 -0.010355028
000190 53 9a 85 3d 2e a2 97 bc e1 c4 43 3d f3 1c 28 3e
       0.06523576 -0.01850995 0.04779518 0.16417293
0001a0 77 d8 54 bc e3 a0 94 bd 61 eb 20 bd 22 a8 da bc
       -0.012991062 -0.07257249 -0.039286975 -0.0266915
0001b0 1f 03 53 3c f1 98 a6 3c b7 21 bc 3d 29 47 3b 3d
       0.012879162 0.0203366 0.09186118 0.04572216
0001c0 a8 db 08 3d 0b b1 e1 3d 1b b3 d3 bd 75 21 b9 3c
       0.033412606 0.110200964 -0.10336896 0.022598961
0001d0 f0 35 68 3d a3 9a 9f 3d 4f 1f 08 3e 5e 9e b4 3d
       0.056692064 0.077931665 0.13293193 0.08819269
0001e0 47 9b 0c 3e ff ca f4 bd 22 5f a6 3c 9d 92 42 3d
       0.13731109 -0.11952781 0.020309035 0.047503103
0001f0 72 1d d9 3d 60 b8 70 3b 69 8c 95 3d 37 60 b8 bc
       0.106013194 0.003673099 0.07302172 -0.022506816
000200 85 30 b2 3d 20 c1 41 3e 7f 2e ec 3c a2 bc 00 3e
       0.087006606 0.18921328 0.028830765 0.12571958
000210 de 19 b5 bd 16 07 16 3d c7 e0 ef 3d eb c2 89 3d
       -0.088428244 0.03662785 0.11712795 0.06726631
000220 1a 2c 3b bd 64 f8 c6 bd 10 ac cc 3b 93 a5 a8 bd
       -0.045696355 -0.097153455 0.0062460974 -0.08234706
000230 70 a0 51 3d 20 04 5c bd d3 44 17 be a7 95 44 bd
       0.051178396 -0.05371487 -0.14772348 -0.047994282
000240 47 c4 22 bd a1 8c 9c bd b8 8c a6 3c e5 9a 61 3c
       -0.039737966 -0.0764401 0.020330772 0.01376984
000250 27 1e fe 3d aa dd af bd ab 25 0e be 67 be 02 bd
       0.12408095 -0.08587201 -0.13881557 -0.031919863
000260 4d 64 4e bd ec 32 06 3e 40 7a 8c 3b 02 69 8b bd
       -0.050388623 0.13105363 0.0042870343 -0.06807138
000270 5b 2b 09 3e 60 7b 91 bd 8b 3d f9 3d ff 6e 14 3e
       0.13395445 -0.0710361 0.121699415 0.14495467
000280 d4 d8 00 be 65 9a b6 bd e1 00 8e 3c 8b 7f a1 bd
       -0.12582713 -0.08916167 0.017334403 -0.07885655
000290 ad 6f f6 3d a5 ea f7 bd ed 22 14 3e bd ab ff bd
       0.12033019 -0.12105302 0.14466448 -0.12483928
0002a0 03 92 b1 bd db 62 1e bd 8b 55 24 be 43 6b 28 be
       -0.08670428 -0.038668495 -0.16048257 -0.16447167
0002b0 60 11 72 bd 59 8a b9 3d 4f 1f 60 bd e8 5b f3 3c
       -0.0590986 0.09059591 -0.05471736 0.02970691
0002c0 8d c9 d6 3c 1f 44 02 3c d7 a5 9d bd 27 66 46 3e
       0.026219154 0.007950812 -0.07697647 0.19374906
0002d0 a3 61 c4 bd 5b fc 1e be 6a 21 08 3d 7f 63 56 bd
       -0.09588935 -0.15525953 0.03323499 -0.05234098
0002e0 03 9a 9e 3b f0 be 3a bd 7f d1 a1 3d 20 21 45 be
       0.004840137 -0.04559225 0.07901286 -0.19250917
0002f0 2f 06 09 3d ed c3 20 bd e8 78 ad 3b 87 31 ab bb
       0.033453163 -0.03924935 0.005293954 -0.00522441
000300 af 84 e9 bd 49 5c ac bd dd 91 2b bd d8 9c 45 3d
       -0.114022605 -0.084160395 -0.041887153 0.04824528
000310 04 82 95 bc 37 95 51 3d 5e 8e 99 bd 38 05 6a bd
       -0.018250473 0.051167693 -0.074978575 -0.057133883
000320 6b 4a e5 bd dd bd 43 3d 78 23 43 be 85 d3 e2 bd
       -0.11195835 0.04778849 -0.19056499 -0.110755004
000330 5c f4 19 3d 0b b2 c7 3d ad d5 31 bd 6b e0 12 3d
       0.037586555 0.09750756 -0.043416668 0.035858553
000340 53 83 fe bd 0b 29 ec 3d f3 52 17 3d cf e9 ad 3d
       -0.12427392 0.11531266 0.03694434 0.08491861
000350 cb 91 94 bd 1d 3a a2 bd 2d 8e d2 3d 47 63 07 3e
       -0.0725437 -0.079212405 0.10281024 0.13221465
000360 0f 91 01 bd 3f 22 9e 3b 0b 33 46 be aa a7 e3 bc
       -0.03163248 0.00482586 -0.19355409 -0.02778991
000370 c0 2e bb bb cc e9 2f be 61 cd c7 bb 8f 93 ce bc
       -0.00571236 -0.1717903 -0.006097481 -0.025216846
000380 97 83 a1 bd 26 c6 91 3d 7a 9c 39 bd 15 45 fb bd
       -0.07886427 0.07117872 -0.045315243 -0.12269036
000390 47 cf 98 3d 82 d0 be bd f3 d8 ac 3d db 5e a8 bd
       0.0746141 -0.093171135 0.08439817 -0.08221217
0003a0 93 d6 fd bd 2b f3 c5 3d 5f 8a 36 3e 68 3b e5 bd
       -0.123944424 0.09665521 0.17826222 -0.111929715
0003b0 75 93 d5 3d a1 b6 8a 3d fa e4 bb bd 0d a0 44 3d
       0.10428516 0.06773115 -0.09174533 0.0480042
0003c0 03 4d 83 3d e2 98 41 bd c3 c9 92 3b d7 e1 23 bd
       0.06411173 -0.04726494 0.0044796183 -0.0400103
0003d0 3f a3 23 bd 3f d6 68 3d 5b dc 45 bd 5a c7 13 3e
       -0.039950605 0.056844946 -0.04830585 0.14431515
0003e0 66 61 23 3d 57 95 f6 bd 0f 93 cf 3d 98 fb 0d 3e
       0.03988781 -0.12040203 0.10135471 0.13865507
0003f0 c7 c5 30 be c7 ac 59 3d 9f ce 21 be d9 92 f7 bd
       -0.17262946 0.05314329 -0.15801476 -0.12088556
