tensorflow/alignment/m1/w1.npy (npy, 62800 bytes, 1 tensors)

array f4 [784, 20]
00000000: 277b 363e 60df 59bd 0700 35be 4517 ed3d
00000010: ad69 903d 0891 ef3b 7b3e ee3d 5ba8 ae3c
00000020: 678c b9bd c800 293b fdb5 f53d 6bb6 7b3d
00000030: 264d 0d3d ef28 4f3c dd16 cebd d3e8 f93d
00000040: 7bcc 3c3d 4b4f 903d 1113 113e fd2d dabc
00000050: ff05 36be e1e5 80bd e55f 2abe af93 0ebd
00000060: 9ca3 04bb 50da 4fbb 55fe 5b3c 967f b93d
00000070: f88a c03d ebc7 8a3d e338 2a3c 7c78 c73d
00000080: 4667 93bc a06a d53d f728 94bc d368 cb3d
00000090: 640f 863d 5d52 ba3c a7e3 1f3e 2af6 ab3d
000000a0: 371e 97bd 6afe 2fbe 5721 0dbe 40dd c8bb
000000b0: a5b8 0abe 54aa b6bd 42be 9abd 5a9b 9fbd
000000c0: e9b9 8dbb ceed 86bc efe6 313e dde7 f5bd
000000d0: 8ff3 593b ff95 483d 10ff c93d 4c7c c33d
000000e0: 8ef6 023e d77d 4bbd cdae f03d 53c0 9cbd
000000f0: 0f5d 54bd a04f d3bc eddf f73d 1911 013e
00000100: 1f20 27bd cff9 c63d c470 1ebe 103f 483d
00000110: 5fd3 49bb 7b6d ad3d c1fb 4a3e 9c99 113e
00000120: babc 07be 6e3c 1bbe 6223 143e 6797 32bc
00000130: 937f 8e3d 528c 1fbc bbbe 0f3b 9315 4a3d
00000140: 0b3a 1f3e d64e 1bbe 3f0d 8abd 8542 3e3d
00000150: 9319 533d ee30 9fbd a536 e03d a834 5bbb
00000160: 3703 2bbb eccc 29be e533 d73d 5c5a 3e3e
00000170: 8d66 63bc f7d2 9abc 4f52 d23c dc70 a4bd
00000180: a89a 2bbd 2c65 b03d b8e7 093d 3317 ed3c
00000190: fd51 8c3d 3351 baba 0117 353e e26a 08be
000001a0: 3661 123e f536 ce3d 0d1f e8bd 3da1 02be
000001b0: 1d3f 0e3d d3b4 29bd 5fb1 4b3d 48f3 2dbe
000001c0: 659d 4e3d c199 10bd 1c55 af3d 873f 4fbd
000001d0: b1ff a33d 1f3f 173d 90c1 01be 3f41 c4bc
000001e0: 1f19 afbc 7fb8 153d f8bc 983d e4a6 2abd
000001f0: 27e1 403e 7121 1abe c15f 44bc 1fa6 493e
00000200: 57d8 b1bc 4acf e03d b441 b13d a77b c03b
00000210: 32d8 813d fa01 ffbd 28f6 063d fc33 a1bd
00000220: a039 efbd 9fec fa3c 03ef af3d fb68 c13d
00000230: ba90 20bd a800 12be 27ee 37bd 491d 3fbd
00000240: d00c d8bb eba4 1dbe 0a99 d23d 8239 d0bd
00000250: 953f d13c d429 363d 2310 7abd 13da 0bbd
00000260: 4d02 543c 5f48 223e 5661 0cbc ff9d 61bd
00000270: e70e 563d 7552 94bd 0d8b 87bd 902c 383d
00000280: ffa7 163e 4bcb c3bd 207c 1a3d df95 f3bd
00000290: e408 273e 8895 513d 470c dd3c 5f99 193e
000002a0: 846b 28bd 5235 3bbe 3745 743d 5307 4c3e
000002b0: eea2 c0bd 6bc9 01be 5383 dabd 132b 39bd
000002c0: 0750 acbd 3b57 89bd 01ce 43bd 03fc 3abd
000002d0: 3f15 bc3d 4bab bfbc 4f55 91bd eefb 9dbc
000002e0: ff36 8b3d 5836 7ebd abc4 943d 594a 973d
000002f0: ffc2 013d 0b1c 963d 7b51 a2bc 2e94 9c3d
00000300: e4be 04be cae5 c43b 0654 40bd a6b3 c4bd
00000310: 68b7 0fbe a297 f7bd 07ff 4e3d 0bca ba3c
00000320: 585d f3bd 8ff6 1cbd 0393 d2bc bbe4 d93c
00000330: 15a0 cf3c a08e 813c 2a07 413d efdd 903b
00000340: fd21 5ebc 125f 3d3d 3a41 343e 6b0d 0cbd
00000350: 4d0e fd3d 27bc d7bd 0b79 303d 2366 7c3c
00000360: 9787 5f3c 53c0 9a3c 576d 62bd fbe6 f03d
00000370: 3f96 cd3c 6ec2 993d b5db 293e 7f5e 1cbd
00000380: 213e 83bb a40b 273c fb44 353e 12c7 dcbd
00000390: 3300 67bd fdc6 cf3c 63fd acbd 0b49 c4bd
000003a0: 3777 8cbc c751 263e e70a c23d ad8d 33be
000003b0: ad14 6f3d 1be4 133d 084e adbd 0704 963d
000003c0: a20e 413d acb1 0ebd f333 12be 819a 05be
000003d0: 6dc9 183c 398b 6bbc 0170 b03c 3d73 713d
000003e0: 4700 213c 1ec0 eebd 2aee 37be a3dd 05be
000003f0: d0a6 243c b688 0ebe d7a9 7dbd c7be 89bd
0.17820416 -0.053191543 -0.17675792 0.11576704 0.07051406 0.0073109902 0.11633011 0.021320513
-0.09059983 0.002578782 0.11997602 0.061453264 0.034497403 0.012644037 -0.100629546 0.12202611
0.046093445 0.07046374 0.1416743 -0.026633257 -0.17775725 -0.06293846 -0.16638143 -0.03480881
-0.002023912 -0.0031715818 0.013427337 0.09057538 0.09401506 0.067764126 0.010389539 0.097397774
-0.01799358 0.10420728 -0.01808594 0.09932103 0.06545904 0.022744352 0.15614186 0.083965614
-0.0737881 -0.17186895 -0.1378225 -0.0061298907 -0.13546999 -0.08919206 -0.0755582 -0.07793303
-0.0043251407 -0.016470816 0.1737325 -0.12007115 0.0033256745 0.048971172 0.098631024 0.09545192
0.12789366 -0.049680557 0.117520906 -0.076538704 -0.05184656 -0.025794804 0.12103257 0.12604178
-0.040802117 0.09715616 -0.15472704 0.048888266 -0.0030796153 0.08468147 0.19822599 0.14218754
-0.13255587 -0.15159771 0.14466622 -0.010900355 0.069579266 -0.009738045 0.0021933753 0.04933698
0.15549485 -0.15166792 -0.06740808 0.046450157 0.05153806 -0.077730045 0.109479226 -0.0033448134
-0.0026094445 -0.16582078 0.10507945 0.18589157 -0.0138794305 -0.018899424 0.025674013 -0.08029339
-0.04189554 0.08613047 0.03366825 0.028941726 0.068515755 -0.0014214873 0.17684557 -0.13322023
0.14294896 0.10069076 -0.113340475 -0.1275682 0.03472816 -0.041432213 0.0497297 -0.16987336
0.050443072 -0.03530288 0.08561155 -0.050597694 0.08007754 0.03692543 -0.12671494 -0.023956893
-0.021374283 0.036552902 0.07457918 -0.041663066 0.18835889 -0.1505182 -0.01198572 0.19692276
-0.021709604 0.10977037 0.0865511 0.0058741155 0.06340064 -0.12451549 0.032949597 -0.07871243
-0.11680913 0.030630408 0.0859051 0.094438516 -0.039200522 -0.14258063 -0.044904854 -0.046658788
-0.0065933242 -0.15394942 0.10283096 -0.10167219 0.025543014 0.044473484 -0.061050545 -0.03414352
0.012940002 0.1584792 -0.008568129 -0.055082317 0.052260306 -0.0724229 -0.06618319 0.044964373
0.14712523 -0.095602594 0.03771603 -0.1189382 0.16311985 0.051167995 0.026983393 0.14999913
-0.04111816 -0.18282059 0.05963632 0.19924669 -0.09406076 -0.12674491 -0.10669579 -0.045207094
-0.084137015 -0.06706091 -0.047803883 -0.045650493 0.0918374 -0.023397109 -0.070963494 -0.019285168
0.06797599 -0.062063545 0.07264074 0.073872276 0.031680103 0.073295675 -0.019814244 0.076454505
-0.12963444 0.0060088383 -0.04695513 -0.09604578 -0.14034808 -0.120894685 0.05053618 0.02280142
-0.11883038 -0.038321074 -0.025704866 0.026598325 0.025344888 0.01581508 0.047125973 0.004420988
-0.013557908 0.046233244 0.17603007 -0.034192484 0.12356243 -0.10533934 0.043084186 0.015405211
0.013643167 0.018890535 -0.055280056 0.11762806 0.025096057 0.07507788 0.16587718 -0.038176056
-0.004005209 0.010195646 0.17702095 -0.10780157 -0.056396674 0.02536344 -0.08446767 -0.09584244
-0.01714669 0.16242133 0.09474736 -0.17534514 0.058369327 0.03610621 -0.08462149 0.07324987
0.047133096 -0.03483741 -0.1427763 -0.1304722 0.009325367 -0.014376455 0.021537783 0.05894779
0.009826726 -0.11657737 -0.17961946 -0.13072829 0.010049537 -0.13919339 -0.06192955 -0.06725841
