tensorflow/alignment/m1/w1.npy (npy, 62800 bytes, 1 tensors)

array f4 [784, 20]
0.08288649 -0.015267357 0.14508727 -0.10390957 0.09594729 0.019059328 -0.06956837 0.09792351
-0.13480262 0.1298326 -0.027670398 -0.15304178 -0.025105927 0.12124886 -0.043491986 0.12139032
-0.117268585 0.039204482 0.04056734 0.10089695 0.04143692 0.044142667 0.11581599 0.032887265
-0.10844053 0.039190784 0.0026369763 0.05675124 0.044580914 0.10210835 -0.066935144 0.057567764
0.03841874 -0.06187714 0.080821455 0.075521454 -0.02555046 0.049756397 -0.008989345 0.058575552
-0.021100368 -0.110214256 -0.050403025 -0.08095581 0.0026900375 -0.10832939 -0.07486885 -0.1453179
-0.031259138 0.011673533 -0.1421405 0.090521015 -0.09399648 -0.05484525 -0.14224927 -0.0016201049
0.11819913 0.10175085 0.042603925 0.057706833 0.15085447 0.102464154 -0.051942196 0.07752114
0.18035154 -0.03270673 0.15522453 0.17417274 -0.16221051 0.026337994 -0.031326015 0.06474127
0.026509529 -0.028969252 -0.011302762 -0.13835704 0.032662697 -0.091223456 0.02572069 -0.022569066
-0.12625341 -0.0014157153 -0.05130687 0.06588817 -0.039633207 0.15670674 -0.11075278 -0.05754436
-0.08172262 -0.016644942 0.06825842 -0.021889381 -0.011800892 0.046036083 0.13740681 -0.09809008
-0.045493033 0.13868795 0.024146987 0.108906545 -0.13768531 -0.018907413 0.045774695 -0.12818526
0.12205084 -0.13010378 -0.16149412 0.10484604 0.022232061 0.09762346 -0.069837205 -0.01870957
0.07795812 0.055442672 0.091914915 -0.07734019 -0.08339717 -0.03421509 0.07498638 0.1595488
0.0957683 0.0978606 0.027487714 -0.0044406387 -0.047426004 0.044250466 0.1359636 -0.054948945
-0.080474235 -0.084980614 0.047160342 -0.018001929 -0.14715603 -0.08707031 -0.15556358 0.08581623
-0.0947993 0.19398873 0.106219605 -0.11243577 -0.031261884 0.108807266 -0.097303286 0.12564749
-0.049453445 -7.1757175e-05 0.07805608 -0.19156928 -0.034791287 0.04781795 0.07278568 -0.019030128
0.07137118 -0.04981831 0.017132869 -0.041447647 0.09131862 0.048844066 0.12330321 0.007047885
-0.026293818 -0.03818565 0.02085444 0.16999823 0.020076757 0.033936437 0.044932704 -0.008991496
0.07296979 -0.14317511 0.057218563 -0.128168 -0.12335354 -0.0023711303 0.026603399 -0.0636134
-0.120036066 -0.024673533 0.0063577415 0.004471304 0.011580857 0.010029269 0.08762601 0.14519574
-0.10850336 0.010974756 -0.094719924 0.03380546 -0.11572365 -0.121173024 -0.1689773 0.057311244
-0.14429645 0.10871072 0.055547398 0.031824436 -0.038444497 0.032776844 0.074069254 -0.06657612
0.17116472 0.13047972 -0.16873537 -0.08417816 -0.07251436 0.038113195 0.03237022 0.07436348
-0.11894264 0.042542882 0.042797692 0.0651158 0.12971148 -0.09696324 0.030400628 0.13595833
-0.15355471 -0.012390889 -0.09595566 -0.02704798 -0.07980867 -0.08766009 0.115118854 -0.06659769
0.0135761425 0.10543777 0.08310857 0.048196908 -0.020957299 -0.01240166 0.0218471 0.016696054
0.028795589 0.051872164 -0.13489501 0.12605287 0.11280342 0.15477099 -0.025688756 -0.078905456
-0.05418969 0.0702302 -0.15344037 0.13085814 0.073828086 -0.08966772 -0.07425473 0.032468315
0.042111617 0.03764142 0.026320657 0.0718927 -0.14083421 0.08526057 -0.015375564 0.003874812
00000000: 64c0 a93d f023 7abc c291 143e 8ace d4bd
00000010: 0380 c43d 4f22 9c3c dd79 8ebd 1f8c c83d
00000020: b309 0abe d6f2 043e 08ad e2bc fcb6 1cbe
00000030: f2aa cdbc 5351 f83d a724 32bd 7d9b f83d
00000040: 832a f0bd e194 203d f029 263d 0fa3 ce3d
00000050: c3b9 293d f1ce 343d ef30 ed3d ccb4 063d
00000060: 1216 debd 8486 203d 1fd1 2c3b fd73 683d
00000070: 7a9a 363d 2f1e d13d 4b15 89bd 2dcc 6b3d
00000080: f85c 1d3d e272 7dbd b885 a53d feaa 9a3d
00000090: 334f d1bc 5dcd 4b3d 0c48 13bc ebec 6f3d
000000a0: aeda acbc 03b8 e1bd 6773 4ebd 29cc a5bd
000000b0: 574b 303b cddb ddbd d754 99bd 37ce 14be
000000c0: 9509 00bd 5942 3f3c 478d 11be 1563 b93d
000000d0: 3a81 c0bd 6aa5 60bd cba9 11be b359 d4ba
000000e0: 6312 f23d c062 d03d 7481 2e3d 005e 6c3d
000000f0: 9879 1a3e bad8 d13d 57c1 54bd 67c3 9e3d
00000100: 13ae 383e 7ef7 05bd 2ef3 1e3e 575a 323e
00000110: 831a 26be c7c2 d73c b54f 00bd 1297 843d
00000120: 832a d93c ed50 edbc 382f 39bc 78ad 0dbe
00000130: 52c9 053d 5dd3 babd 32b4 d23c c3e2 b8bc
00000140: 9348 01be 868f b9ba 2727 52bd 60f0 863d
00000150: 6e56 22bd bb77 203e 5bd2 e2bd a3b3 6bbd
00000160: 305e a7bd f95a 88bc 12cb 8b3d 5c51 b3bc
00000170: 8758 41bc 5590 3c3d 5fb4 0c3e 74e3 c8bd
00000180: e756 3abd 3704 0e3e e7cf c53c 650a df3d
00000190: 61fd 0cbe b8e3 9abc 3f7e 3b3d ff42 03be
000001a0: caf5 f93d ed39 05be b75e 25be 85b9 d63d
000001b0: 0320 b63c cfee c73d cf06 8fbd d044 99bc
000001c0: 82a8 9f3d db17 633d e33d bc3d 8964 9ebd
000001d0: 23cc aabd 1f25 0cbd 7692 993d c360 233e
000001e0: 2c22 c43d 236b c83d ea2d e13c c782 91bb
000001f0: c541 42bd fa3f 353d 0b3a 0b3e 2512 61bd
00000200: adcf a4bd 510a aebd 342b 413d c878 93bc
00000210: 12b0 16be eb51 b2bd 0f4c 1fbe 6bc0 af3d
00000220: 2326 c2bd fba4 463e aa89 d93d ba44 e6bd
00000230: 760c 00bd 58d6 de3d f246 c7bd bca9 003e
00000240: b28f 4abd 577c 96b8 dedb 9f3d bd2a 44be
00000250: 4f81 0ebd c1dc 433d a910 953d 12e5 9bbc
00000260: 0e2b 923d 490e 4cbd 3b5a 8c3c 02c5 29bd
00000270: 4205 bb3d b710 483d 6586 fc3d f2f1 e63b
00000280: 2266 d7bc 8e68 1cbd eed6 aa3c 0414 2e3e
00000290: 0378 a43c ef00 0b3d 5b0b 383d 1151 13bc
000002a0: 2f71 953d 7f9c 12be 035e 6a3d 793e 03be
000002b0: c8a0 fcbd f764 1bbb 5fef d93c be47 82bd
000002c0: 78d5 f5bd 2620 cabc 9a54 d03b 0484 923b
000002d0: a3bd 3d3c ce51 243c 4475 b33d 31ae 143e
000002e0: 0237 debd 77cf 333c 85fc c1bd 9877 0a3d
000002f0: 8500 edbd 9029 f8bd 6308 2dbe 32bf 6a3d
00000300: 73c2 13be baa3 de3d ab85 633d 575a 023d
00000310: fa77 1dbd 0341 063d 9fb1 973d 1059 88bd
00000320: ce45 2f3e 7a9c 053e f7c8 2cbe 9965 acbd
00000330: 6982 94bd 951c 1c3d a396 043d e14b 983d
00000340: 3398 f3bd 7241 2e3d a24c 2f3d 6f5b 853d
00000350: 16d3 043e aa94 c6bd bd0a f93c a938 0b3e
00000360: 723d 1dbe 2803 4bbc 6784 c4bd ba93 ddbc
00000370: ba72 a3bd 2287 b3bd 6fc3 eb3d 5f64 88bd
00000380: 786e 5e3c c2ef d73d d334 aa3d 1f6a 453d
00000390: a4ae abbc 5530 4bbc b1f8 b23c 2ac6 883c
000003a0: bae4 eb3c e877 543d eb21 0abe 0114 013e
000003b0: 7b05 e73d 497c 1e3e 3a71 d2bc 2f99 a1bd
000003c0: 02f6 5dbd dad4 8f3d 791f 1dbe adff 053e
000003d0: 2e33 973d b6a3 b7bd dd12 98bd 7ffd 043d
000003e0: 3b7d 2c3d e42d 1a3d 6b9e d73c 7b3c 933d
000003f0: d836 10be 189d ae3d cae9 7bbc 8ff0 7d3b
