tensorflow/alignment/m1/w1.npy (npy, 62800 bytes, 1 tensors)

array f4 [784, 20]
0.013865808 -0.0053879614 -0.106161274 -0.008974581 -0.1559736 -0.0366783 0.0026003881 -0.0026788095
0.093220584 0.0721195 -0.1404774 0.0886203 0.021340355 0.06089734 -0.015994279 0.08582945
-0.0120488815 -0.0033709933 -0.068345375 0.1211279 -0.1280676 0.14400367 -0.18352741 -0.04736026
-0.082044296 -0.03665347 -0.1067458 -0.18799512 0.17882623 -0.066801354 -0.0013001984 0.10727965
-0.056122538 -0.027219728 -0.06652099 -0.10857526 0.04007038 -0.09392442 -0.14343464 0.05271377
0.11464294 0.006628405 -0.010572392 -0.10363846 0.04817229 0.037197344 -0.0002844067 0.14273646
-0.12146946 -0.05097617 -0.07015194 0.022220448 -0.04258142 0.003337095 0.010859314 0.101548605
-0.1525567 -0.060302388 -0.0518321 -0.07819946 0.019575879 0.014531602 0.0024923745 -0.029303452
0.104495145 -0.06520607 -0.060863532 0.054140758 0.19276713 -0.10853739 -0.0248194 -0.084365405
0.04916591 0.083861165 -0.19566894 0.18912159 0.08863314 0.016290652 0.016385907 -0.0016874779
-0.05311642 -0.007301946 -0.11662318 -0.08061635 0.083668806 0.06724446 -0.105775 0.023671275
-0.08825242 -0.01099598 -0.13464855 0.018472997 -0.1290841 0.14063331 -0.13920073 0.11992233
-0.071315095 0.14376429 -0.04586935 0.15414943 0.11776604 0.036998335 -0.0091974465 -0.030580947
0.13500232 -0.041009374 0.054956704 -0.17551206 -0.045054004 0.08974897 0.06390353 0.045910545
0.12918487 0.026223868 0.08057385 -0.0745808 0.028054073 0.07128929 -0.13946098 -0.028622145
-0.08338357 -0.08823539 -0.0044912784 0.021716932 0.009225062 0.17962344 0.13138942 -0.09355237
-0.02760539 0.06261291 0.18504873 -0.19848716 -0.028181223 0.12201029 -0.095828 -0.11352625
-0.01922798 0.0135302385 0.0524459 -0.09269615 -0.04956293 0.12165739 -0.06919176 0.09932377
-0.11021073 -0.11108674 0.12117809 0.13104998 0.025915284 -0.02386599 0.10263719 0.002053268
-0.06196412 -0.11965829 -0.1296084 -0.111997366 -0.074067734 0.06812559 0.0016987289 -0.024268342
-0.13502483 -0.05157992 -0.14101955 -0.054907102 0.043862462 -0.039404508 0.1419957 -0.062962726
-0.010309781 -0.06789767 0.077210985 0.06046719 0.111913204 0.027483819 0.121127784 0.08468151
-0.012161384 -0.072410695 -0.03905825 -0.06002907 -0.10321634 0.14948586 -0.09389515 0.15199797
0.10303258 -0.079456635 -0.11189952 -0.01950854 0.069218114 0.06203943 -0.16694696 -0.017611021
-0.119802825 0.031428557 -0.0050944365 0.063355766 -0.083993115 -0.11856397 -0.022154225 0.0038815902
-0.03785281 -0.0034081799 -0.022947643 -0.06437599 -0.10833808 -0.04225729 -0.04791849 0.013368161
-0.0037493643 0.18332653 0.11938902 -0.006325417 -0.18701397 -0.017678121 0.009762733 0.109961905
-0.07603313 -0.11918119 -0.15903652 -0.13834223 -0.021044139 0.11581792 -0.016805539 0.0035185963
-0.009761165 0.04585159 0.19172813 -0.05995642 -0.0068813236 0.027818883 0.08770672 0.16477285
-0.05137208 -0.16223991 -0.12613843 -0.0027181234 -0.05984783 -0.0018510001 -0.09051431 -0.01690135
0.08355851 -0.06605261 -0.011311494 -0.12792039 0.17733912 0.010258589 -0.06391664 0.00033489123
0.005719625 -0.18902242 0.11513587 -0.024303725 -0.12333739 0.011947995 -0.03794448 -0.027048012
00000000: 6a2d 633c 7f8d b0bb 156b d9bd 1f0a 13bc
00000010: 8bb7 1fbe fc3b 16bd 466b 2a3b f78e 2fbb
00000020: 6fea be3d 63b3 933d 4fd9 0fbe 8f7e b53d
00000030: f8d1 ae3c 7d6f 793d 6f06 83bc 5ac7 af3d
00000040: ac68 45bc e2eb 5cbb a9f8 8bbd e811 f83d
00000050: 2724 03be b375 133e 9cee 3bbe d5fc 41bd
00000060: d706 a8bd f321 16bd 8b9d dabd cb81 40be
00000070: 391e 373e 26cf 88bd 6b6b aaba 6fb5 db3d
00000080: bfe0 65bd e8fb debc 283c 88bd b55c debd
00000090: d720 243d 725b c0bd 88e0 12be 65ea 573d
000000a0: ebc9 ea3d 1733 d93b d337 2dbc 6740 d4bd
000000b0: 4f50 453d 3e5c 183d 6c1c 95b9 8229 123e
000000c0: fbc4 f8bd 63cc 50bd d2ab 8fbd a807 b63c
000000d0: db69 2ebd 2ab3 5a3b 44eb 313c b7f8 cf3d
000000e0: d337 1cbe a3ff 76bd e54d 54bd 0a27 a0bd
000000f0: 985d a03c f515 6e3c 1b57 233b cb0d f0bc
00000100: 8d01 d63d c38a 85bd 0a4c 79bd b3c2 5d3d
00000110: bf64 453e da48 debd 0e52 cbbc c5c7 acbd
00000120: 3162 493d 67bf ab3d 705d 48be 17a9 413e
00000130: 4b85 b53d f973 853c bd3b 863c 5d2e ddba
00000140: 9a90 59bd 2a45 efbb 22d8 eebd 2f1a a5bd
00000150: 8d5a ab3d 77b7 893d 90a0 d8bd 43ea c13c
00000160: afbd b4bd 7c28 34bc 4fe1 09be af54 973c
00000170: 9f2e 04be 2e02 103e a38a 0ebe d799 f53d
00000180: a60d 92bd f236 133e 80e1 3bbd 59d9 1d3e
00000190: 522f f13d 918b 173d e3b0 16bc e584 fabc
000001a0: 0c3e 0a3e 72f9 27bd 481a 613d 6fb9 33be
000001b0: 8c8a 38bd 4fce b73d dbdf 823d b20c 3c3d
000001c0: 0a49 043e 70d3 d63c e703 a53d d2bd 98bd
000001d0: a8d1 e53c 1f00 923d dcce 0ebe fd78 eabc
000001e0: 01c5 aabd c2b4 b4bd 932b 93bb b5e7 b13c
000001f0: b724 173c 35ef 373e f38a 063e 6398 bfbd
00000200: b324 e2bc 333b 803d 6a7d 3d3e 3840 4bbe
00000210: 4fdc e6bc 88e0 f93d 7841 c4bd 7380 e8bd
00000220: ff83 9dbc efad 5d3c 83d1 563d 7bd7 bdbd
00000230: 8002 4bbd 8227 f93d 69b4 8dbd 436a cb3d
00000240: 2ab6 e1bd 7281 e3bd 382c f83d f731 063e
00000250: 4a4c d43c 9c82 c3bc 7233 d23d 1f90 063b
00000260: 17ce 7dbd 680f f5bd 10b8 04be e05e e5bd
00000270: d3b0 97bd 6e85 8b3d e2a7 de3a 67ce c6bc
00000280: f343 0abe 7745 53bd 6e67 10be 45e6 60bd
00000290: 20a9 333d 9f66 21bd 5267 113e 9af2 80bd
000002a0: 5bea 28bc ef0d 8bbd cb20 9e3d 72ac 773d
000002b0: c032 e53d bf25 e13c d811 f83d 806d ad3d
000002c0: 8b40 47bc 0f4c 94bd 8bfb 1fbd 0be1 75bd
000002d0: 1763 d3bd d212 193e 1a4c c0bd 5ba5 1b3e
000002e0: bf02 d33d 29ba a2bd 932b e5bd 60d0 9fbc
000002f0: 3ac2 8d3d 0f1d 7e3d 25f4 2abe fd44 90bc
00000300: 2f5b f5bd 3bbb 003d 3bef a6bb abc0 813d
00000310: 9504 acbd abd1 f2bd c77c b5bc 4762 7e3b
00000320: 8c0b 1bbd c55b 5fbb b2fc bbbc 8fd7 83bd
00000330: 5be0 ddbd fb15 2dbd 2e46 44bd 2206 5b3c
00000340: e5b7 75bb f3b9 3b3e 3b82 f43d 7245 cfbb
00000350: 9780 3fbe b5d1 90bc dff3 1f3c b533 e13d
00000360: 42b7 9bbd 4515 f4bd 78da 22be 96a9 0dbe
00000370: c264 acbc f231 ed3d c5ab 89bc 4098 663b
00000380: 4bed 1fbc e0ce 3b3d 6154 443e dd94 75bd
00000390: ba7c e1bb 6de4 e33c 959f b33d 37ba 283e
000003a0: 886b 52bd 3822 26be 6f2a 01be 8b22 32bb
000003b0: 0023 75bd 429d f2ba 915f b9bd b374 8abc
000003c0: b920 ab3d 9746 87bd d853 39bc 90fd 02be
000003d0: 6398 353e a413 283c bae6 82bd 5794 af39
000003e0: b16b bb3b 188f 41be 5bcc eb3d 9b18 c7bc
000003f0: 5098 fcbd 86c1 433c ac6b 1bbd cb93 ddbc
