tensorflow/alignment/m1/w2.npy (npy, 880 bytes, 1 tensors)

array f4 [20, 10]
-0.42201495 0.6948492 -0.1803061 0.092324115 -0.42945233 -0.5035723 -0.6654142 0.94577664
-0.30310166 0.7443564 -0.33138153 -0.49293023 -0.038709488 -0.24461918 0.8145217 -0.21163501
-0.38445097 0.88304585 -0.48227757 0.7069326 -0.6534463 0.6809751 0.8150257 -0.02080869
-0.3252103 -0.24332839 0.69273216 0.32434884 0.063494086 -0.72302514 -0.7980195 -0.6865281
-0.09338845 0.20697668 0.6295192 0.47953653 -0.1715848 -0.43792242 0.5715591 0.5474073
-0.49400178 0.72671556 0.038948137 -0.32067457 -0.06343653 0.30388862 -0.358045 -0.121195234
0.7218355 -0.44596615 -0.74705094 -0.7343812 -0.2320224 -0.068613224 0.47629195 0.3831492
-0.83711004 0.56089604 0.12541465 0.49651673 -0.97038025 0.43879533 -0.11876145 0.3743613
0.40218458 -0.41563055 -0.8574363 0.41729876 0.337621 0.4406954 -0.6685168 0.7323665
-0.25673088 0.937625 -0.15860534 0.7901323 -0.7225349 -0.48711282 -0.27403644 0.10700891
0.4836182 -0.8403673 0.40529191 -0.36767328 0.34243318 -0.0792844 0.50228614 -0.6288364
-0.09209315 0.1428168 -0.86756843 0.51235324 -0.67410123 -0.23879287 0.40940997 0.58208644
0.60215104 -0.8612329 0.38688597 0.3976204 -0.6007182 -0.43159804 0.58970994 0.5245221
0.49020317 0.124714755 0.61332905 -0.46490228 -0.16096817 -0.6449841 0.63804555 -0.96421134
-0.06263717 -0.31141582 0.34851506 0.4684325 0.5454723 -0.74327046 0.41361222 -0.5522912
0.59844947 -0.4575313 -0.05142147 0.46123725 -0.76979107 0.5388284 -0.17436829 0.43592268
-0.43532556 -0.31613624 -0.5955491 0.43677634 0.120970756 -0.6957155 0.55923283 -0.32356706
0.7352257 -0.5806294 -0.3181916 0.5272583 0.38991645 -0.75864285 0.2328254 0.31866783
-1.1153574 0.27181667 -0.60021037 0.22873628 0.29326412 0.20048976 -0.7204827 0.5038753
0.51899076 -0.16819078 -0.24812436 0.37215504 0.53599614 -0.4188772 0.48484084 -0.7219172
-0.6322724 0.61584246 0.74732804 0.60943043 -0.7595068 -0.36253828 -0.6796565 0.58498234
0.37705195 -0.40979704 -0.19960605 -0.19180882 0.022978501 -0.31418836 0.41219696 -0.051494133
-0.09460931 0.16633675 -0.10370764 0.16021746 -0.4073022 -0.43306592 0.6943205 0.73943233
-0.7372399 0.5120238 -0.836456 0.23174417 0.57290596 0.055949345 -0.040332478 -0.08720931
0.04496299 -0.07491849 -0.108053066 0.063910864 0.16151208 -0.12501103 0.06679407 -0.08036963
00000000: 5812 d8be a3e1 313f 2aa2 38be 6d14 bd3d
00000010: 2de1 dbbe 1dea 00bf 9658 2abf 6b1e 723f
00000020: 2430 9bbe 248e 3e3f d7aa a9be 5a61 fcbe
00000030: d78d 1ebd 737d 7abe 7e84 503f d9b6 58be
00000040: c2d6 c4be 4b0f 623f 16ed f6be 89f9 343f
00000050: 4248 27bf 6254 2e3f 86a5 503f fc76 aabc
00000060: f781 a6be 142b 79be e556 313f 0d11 a63e
00000070: 3009 823d 2d18 39bf 024b 4cbf 4ec0 2fbf
00000080: 7242 bfbd b2f1 533e 2c28 213f d085 f53e
00000090: edb3 2fbe 5e37 e0be b251 123f e322 0c3f
000000a0: cded fcbe 080a 3a3f 1588 1f3d 752f a4be
000000b0: 03eb 81bd 4a97 9b3e ad51 b7be 3535 f8bd
000000c0: 36ca 383f ad55 e4be bb3e 3fbf 6800 3cbf
000000d0: 4897 6dbe 1785 8cbd 8adc f33e 222c c43e
000000e0: d84c 56bf e296 0f3f b36c 003e 7137 fe3e
000000f0: d76a 78bf c8a9 e03e 3439 f3bd 49ac bf3e
00000100: 23eb cd3e 87cd d4be f280 5bbf 2fa8 d53e
00000110: a9dc ac3e d4a2 e13e eb23 2bbf 5f7c 3b3f
00000120: 3b72 83be 3108 703f 7069 22be 1c46 4a3f
00000130: 0cf8 38bf da66 f9be 814e 8cbe 7d27 db3d
00000140: ce9c f73e 5022 57bf 6c82 cf3e ac3f bcbe
00000150: 6753 af3e dc5f a2bd d395 003f 6cfb 20bf
00000160: 559b bcbd 913e 123e f718 5ebf 9529 033f
00000170: e691 2cbf 1e86 74be 2f9e d13e 9e03 153f
00000180: 9226 1a3f c279 5cbf eb15 c63e e794 cb3e
00000190: abc8 19bf 6bfa dcbe 3bf7 163f 1547 063f
000001a0: e9fb fa3e 736a ff3d 2203 1d3f ac07 eebe
000001b0: d7d4 24be ae1d 25bf f456 233f 8ed6 76bf
000001c0: eb47 80bd e571 9fbe 9170 b23e 62d6 ef3e
000001d0: 13a4 0b3f f946 3ebf fbc4 d33e f562 0dbf
000001e0: fc33 193f 8b41 eabe 529f 52bd 4a27 ec3e
000001f0: 0711 45bf a8f0 093f 9a8d 32be 4231 df3e
00000200: fee2 debe 9cdc a1be e875 18bf 26a1 df3e
00000210: 84bf f73d 691a 32bf e229 0f3f 95aa a5be
00000220: c037 3c3f 21a4 14bf 02ea a2be 66fa 063f
00000230: 21a3 c73e 6b36 42bf c869 6e3e 6e28 a33e
00000240: 08c4 8ebf 8e2b 8b3e 63a7 19bf d839 6a3e
00000250: b726 963e 304d 4d3e 8e71 38bf f9fd 003f
00000260: 94dc 043f 343a 2cbe 5014 7ebe 1b8b be3e
00000270: 0b37 093f 1377 d6be 0f3d f83e 91cf 38bf
00000280: 9bdc 21bf daa7 1d3f e450 3f3f a203 1c3f
00000290: 0a6f 42bf 9e9e b9be f8fd 2dbf 67c1 153f
000002a0: f40c c13e ebd0 d1be 8765 4cbe 8869 44be
000002b0: 693d bc3c 4cdd a0be 7b0b d33e 83eb 52bd
000002c0: 87c2 c1bd 2e54 2a3e ac64 d4bd 0c10 243e
000002d0: ea89 d0be d1ba ddbe fdbe 313f 704b 3d3f
000002e0: c1bb 3cbf fe13 033f fb21 56bf 584e 6d3e
000002f0: f7a9 123f 242b 653d ab33 25bd cb9a b2bd
00000300: 1d2b 383d de6e 99bd ed4a ddbd b3e3 823d
00000310: 6c63 253e e402 00be 54cb 883d d598 a4bd
