tensorflow/alignment/m1/w2.npy (npy, 880 bytes, 1 tensors)

array f4 [20, 10]
00000000: f3d0 9abe c839 0fbe 660d 933f c4ff 983e
00000010: 277f 1bbe 906e 24bd f1af b3bc 9722 9fbd
00000020: e2a7 3d3c 7ae7 17bc 23e7 d33e 1c71 a63e
00000030: 0cf2 b33e 9a09 d83e 9e12 35bf da8b 6abe
00000040: 6a18 92be e922 8abe 3b6f 4bbe 576e afbe
00000050: 54c6 053f 901a 4bbf 2297 e83e b1f0 01bd
00000060: 62a9 033f 2925 43be 1741 96be f487 67be
00000070: 23dc 75be 6682 5abe 8df1 223f fb89 ecbe
00000080: f0a0 533e 5d41 183f be5e 02bf adb5 f5bd
00000090: 18d8 9fbd 6774 09be df88 d0bd 7b14 20be
000000a0: 7216 2abe 515e dcbe f7da 163f 7ea4 94be
000000b0: 755c 333f f4c8 d3bd d904 adbc 2f9c c53b
000000c0: 0ca4 29bd 0c1c 1abe f1c8 23bf dc3c 203f
000000d0: 173a 3e3f ae0c 14bd 0916 08bf 0487 0ebe
000000e0: 2577 4fbd 27d0 e1bc 535c b93c 2653 99bd
000000f0: 0ca3 8e3f 644d 33be 6d71 333d 1fd1 0fbe
00000100: 5947 e7bd 3809 63bd 28c3 7fbd e9d5 2bbe
00000110: 219f 0cbe f168 31be 011a 24bf 3a11 2c3f
00000120: 4d20 1e3f 5c22 1e3f 41d9 b2be 43d1 a9bd
00000130: 367e 26be aea6 10be 7346 9cbd 6bb6 58be
00000140: ba63 b3be c683 2fbe 1c55 883c 948c 423f
00000150: eb16 523f cde7 2ebe 070a 63be a9b4 31be
00000160: 348b 86be 0564 46be fafc 0dbf ad89 503f
00000170: 270e 4a3f ff0e d93e 4da6 afbe 2ff6 d9bd
00000180: 05db 8fbd 9469 08be e2f8 21bd 3a8d 16be
00000190: fa59 16bf f72c d2be 7e27 ae3c c948 7b3f
000001a0: e077 66bd 8d59 a6bd d2a9 1abe 53af 08be
000001b0: ecc0 4f3d 217c c73d c17c 00bf d518 4f3f
000001c0: 3ee5 12be f683 82be 96d5 6e3f 48af 01be
000001d0: 6d2c 66be e07d 2fbe ec83 4fbe 852c babd
000001e0: a68b 013f 0057 47bf ce56 c63e d92d d23e
000001f0: 7f57 e23e a85f 13be af23 86be e8fb 58be
00000200: 2915 94be 1870 34be f4db 1d3f cd8f 00bf
00000210: e3c7 0b3f 8c1d cfbc b9d8 143f 232a 8cbe
00000220: 94b7 85be d772 50be e6a5 9ebe 6368 0dbe
00000230: 2494 a7bd 0255 8f3f a1aa 8fbe 55e4 51be
00000240: a3e8 81bd 14f1 043d d890 68be 83fb 47be
00000250: f7e2 18bc 3c3c 81bd b19c 2ebf 6e3c 323f
00000260: 2ee4 e2be 530f 3a3f 8265 2e3f 4eb4 66be
00000270: 01a9 eebd b2a6 5dbe 2513 09be 1bb8 80be
00000280: 498b fb3e 4c05 7abe c346 e93e 82fc ec3e
00000290: 7bfa 2ebf 0b4e 75be 5c1f f1bd f083 4cbe
000002a0: 543f 3bbe f384 1cbe 22c7 3cbf e1b5 113f
000002b0: d2da 133f 224d 053f 0ff1 d2be e446 5fbe
000002c0: 1f9d 2fbe f7fc 12be c7fd 50be c350 86be
000002d0: 3a62 f6be da29 07bf df32 0c3f e385 223f
000002e0: 52e8 243f 916f 60be b6d5 bfbd ce03 42be
000002f0: 2a32 c2bd dc46 c3bd ca11 273f 0be8 96be
00000300: 0f0f 103f b0ce 193f e494 a6be 8aac 21be
00000310: 385d 95be 3f0b 2cbe fdda a2be 310e 6dbe
-0.3023754 -0.13986886 1.1488464 0.29882634 -0.15185224 -0.040144503 -0.021934481 -0.07770269
0.011575671 -0.009271497 0.4138728 0.3250817 0.35145605 0.42194825 -0.7073153 -0.22904912
-0.2853425 -0.2697976 -0.1986665 -0.3426387 0.5225575 -0.79337406 0.45427805 -0.03172368
0.5143033 -0.19057144 -0.29346535 -0.22610456 -0.24009757 -0.21338806 0.6364983 -0.4619902
0.20666862 0.59474736 -0.50925815 -0.119975425 -0.078048885 -0.1342331 -0.10182356 -0.15632813
-0.16610125 -0.43040708 0.58927864 -0.29031748 0.70062953 -0.10341063 -0.021120476 0.0060305814
-0.041416213 -0.15049762 -0.6397849 0.62592864 0.7430739 -0.036144905 -0.5315862 -0.13918692
-0.050650734 -0.027565075 0.022627031 -0.074865624 1.1143508 -0.17509991 0.043809343 -0.14044617
-0.11292905 -0.055428714 -0.062441975 -0.16780819 -0.13732578 -0.17325188 -0.6410218 0.67213786
0.6176804 0.6177118 -0.34931377 -0.08291867 -0.16259083 -0.14126083 -0.076306246 -0.21163337
-0.35037023 -0.17140111 0.016642146 0.75995755 0.8206622 -0.17080612 -0.22171794 -0.17354073
-0.2627808 -0.19374092 -0.55464137 0.81460077 0.78927845 0.42394254 -0.34306565 -0.10642659
-0.070241965 -0.13321525 -0.039543994 -0.14702311 -0.58731043 -0.4104993 0.021259066 0.98157936
-0.056266665 -0.08122549 -0.15103844 -0.13348131 0.050721094 0.097404726 -0.5019036 0.80897266
-0.14345261 -0.25491303 0.93294656 -0.1266452 -0.22477885 -0.17137861 -0.20265168 -0.09090523
0.5060371 -0.77867126 0.38738102 0.41050604 0.4420738 -0.14391959 -0.261991 -0.21189845
-0.28922394 -0.17620885 0.61663747 -0.5021942 0.5460188 -0.025282644 0.5814319 -0.27375898
-0.26116621 -0.20356308 -0.30985945 -0.13809352 -0.081825525 1.1197817 -0.28059867 -0.20497258
-0.063432 0.032456473 -0.22711504 -0.19529538 -0.009331456 -0.06310317 -0.6820784 0.6962346
-0.44314712 0.7267963 0.6812364 -0.22529718 -0.11653329 -0.2164562 -0.1338621 -0.2514046
0.49129704 -0.24416083 0.455618 0.46286398 -0.6835095 -0.23955552 -0.117735595 -0.19972205
-0.18285877 -0.15285091 -0.7374135 0.5691815 0.5775577 0.5207082 -0.41199538 -0.21804386
-0.1714978 -0.14354311 -0.20409308 -0.2623349 -0.48121816 -0.52798235 0.54765123 0.63485545
0.6441699 -0.21917559 -0.09366934 -0.18946764 -0.09482224 -0.09535 0.6526152 -0.2947391
0.5627298 0.60081005 -0.3253547 -0.15788475 -0.29172683 -0.16801165 -0.318077 -0.23149945
